Thyroid Cancer Recurrence Prediction/Model/tabnet_model.pt (torch, 92932 bytes, 112 tensors)

tabnet.initial_bn.weight f4 [55]
0	0x3f800000	1.0
1	0x3f800000	1.0
2	0x3f800000	1.0
3	0x3f800000	1.0
4	0x3f800000	1.0
5	0x3f800000	1.0
6	0x3f800000	1.0
7	0x3f800000	1.0
8	0x3f800000	1.0
9	0x3f800000	1.0
10	0x3f800000	1.0
11	0x3f800000	1.0
12	0x3f800000	1.0
13	0x3f800000	1.0
14	0x3f800000	1.0
15	0x3f800000	1.0
16	0x3f800000	1.0
17	0x3f800000	1.0
18	0x3f800000	1.0
19	0x3f800000	1.0
20	0x3f800000	1.0
21	0x3f800000	1.0
22	0x3f800000	1.0
23	0x3f800000	1.0
24	0x3f800000	1.0
25	0x3f800000	1.0
26	0x3f800000	1.0
27	0x3f800000	1.0
28	0x3f800000	1.0
29	0x3f800000	1.0
30	0x3f800000	1.0
31	0x3f800000	1.0
32	0x3f800000	1.0
33	0x3f800000	1.0
34	0x3f800000	1.0
35	0x3f800000	1.0
36	0x3f800000	1.0
37	0x3f800000	1.0
38	0x3f800000	1.0
39	0x3f800000	1.0
40	0x3f800000	1.0
41	0x3f800000	1.0
42	0x3f800000	1.0
43	0x3f800000	1.0
44	0x3f800000	1.0
45	0x3f800000	1.0
46	0x3f800000	1.0
47	0x3f800000	1.0
48	0x3f800000	1.0
49	0x3f800000	1.0
50	0x3f800000	1.0
51	0x3f800000	1.0
52	0x3f800000	1.0
53	0x3f800000	1.0
54	0x3f800000	1.0

tabnet.initial_bn.bias f4 [55]
0	0x00000000	0.0
1	0x00000000	0.0
2	0x00000000	0.0
3	0x00000000	0.0
4	0x00000000	0.0
5	0x00000000	0.0
6	0x00000000	0.0
7	0x00000000	0.0
8	0x00000000	0.0
9	0x00000000	0.0
10	0x00000000	0.0
11	0x00000000	0.0
12	0x00000000	0.0
13	0x00000000	0.0
14	0x00000000	0.0
15	0x00000000	0.0
16	0x00000000	0.0
17	0x00000000	0.0
18	0x00000000	0.0
19	0x00000000	0.0
20	0x00000000	0.0
21	0x00000000	0.0
22	0x00000000	0.0
23	0x00000000	0.0
24	0x00000000	0.0
25	0x00000000	0.0
26	0x00000000	0.0
27	0x00000000	0.0
28	0x00000000	0.0
29	0x00000000	0.0
30	0x00000000	0.0
31	0x00000000	0.0
32	0x00000000	0.0
33	0x00000000	0.0
34	0x00000000	0.0
35	0x00000000	0.0
36	0x00000000	0.0
37	0x00000000	0.0
38	0x00000000	0.0
39	0x00000000	0.0
40	0x00000000	0.0
41	0x00000000	0.0
42	0x00000000	0.0
43	0x00000000	0.0
44	0x00000000	0.0
45	0x00000000	0.0
46	0x00000000	0.0
47	0x00000000	0.0
48	0x00000000	0.0
49	0x00000000	0.0
50	0x00000000	0.0
51	0x00000000	0.0
52	0x00000000	0.0
53	0x00000000	0.0
54	0x00000000	0.0

tabnet.initial_bn.running_mean f4 [55]
0	0x00000000	0.0
1	0x00000000	0.0
2	0x00000000	0.0
3	0x00000000	0.0
4	0x00000000	0.0
5	0x00000000	0.0
6	0x00000000	0.0
7	0x00000000	0.0
8	0x00000000	0.0
9	0x00000000	0.0
10	0x00000000	0.0
11	0x00000000	0.0
12	0x00000000	0.0
13	0x00000000	0.0
14	0x00000000	0.0
15	0x00000000	0.0
16	0x00000000	0.0
17	0x00000000	0.0
18	0x00000000	0.0
19	0x00000000	0.0
20	0x00000000	0.0
21	0x00000000	0.0
22	0x00000000	0.0
23	0x00000000	0.0
24	0x00000000	0.0
25	0x00000000	0.0
26	0x00000000	0.0
27	0x00000000	0.0
28	0x00000000	0.0
29	0x00000000	0.0
30	0x00000000	0.0
31	0x00000000	0.0
32	0x00000000	0.0
33	0x00000000	0.0
34	0x00000000	0.0
35	0x00000000	0.0
36	0x00000000	0.0
37	0x00000000	0.0
38	0x00000000	0.0
39	0x00000000	0.0
40	0x00000000	0.0
41	0x00000000	0.0
42	0x00000000	0.0
43	0x00000000	0.0
44	0x00000000	0.0
45	0x00000000	0.0
46	0x00000000	0.0
47	0x00000000	0.0
48	0x00000000	0.0
49	0x00000000	0.0
50	0x00000000	0.0
51	0x00000000	0.0
52	0x00000000	0.0
53	0x00000000	0.0
54	0x00000000	0.0

tabnet.initial_bn.running_var f4 [55]
0	0x3f800000	1.0
1	0x3f800000	1.0
2	0x3f800000	1.0
3	0x3f800000	1.0
4	0x3f800000	1.0
5	0x3f800000	1.0
6	0x3f800000	1.0
7	0x3f800000	1.0
8	0x3f800000	1.0
9	0x3f800000	1.0
10	0x3f800000	1.0
11	0x3f800000	1.0
12	0x3f800000	1.0
13	0x3f800000	1.0
14	0x3f800000	1.0
15	0x3f800000	1.0
16	0x3f800000	1.0
17	0x3f800000	1.0
18	0x3f800000	1.0
19	0x3f800000	1.0
20	0x3f800000	1.0
21	0x3f800000	1.0
22	0x3f800000	1.0
23	0x3f800000	1.0
24	0x3f800000	1.0
25	0x3f800000	1.0
26	0x3f800000	1.0
27	0x3f800000	1.0
28	0x3f800000	1.0
29	0x3f800000	1.0
30	0x3f800000	1.0
31	0x3f800000	1.0
32	0x3f800000	1.0
33	0x3f800000	1.0
34	0x3f800000	1.0
35	0x3f800000	1.0
36	0x3f800000	1.0
37	0x3f800000	1.0
38	0x3f800000	1.0
39	0x3f800000	1.0
40	0x3f800000	1.0
41	0x3f800000	1.0
42	0x3f800000	1.0
43	0x3f800000	1.0
44	0x3f800000	1.0
45	0x3f800000	1.0
46	0x3f800000	1.0
47	0x3f800000	1.0
48	0x3f800000	1.0
49	0x3f800000	1.0
50	0x3f800000	1.0
51	0x3f800000	1.0
52	0x3f800000	1.0
53	0x3f800000	1.0
54	0x3f800000	1.0

tabnet.encoder.initial_bn.weight f4 [55]
0	0x3f6fc342	0.93657315
1	0x3f844881	1.0334626
2	0x3f635b76	0.88811433
3	0x3f8192ac	1.0122886
4	0x3f90d8f2	1.1316206
5	0x3f59345c	0.8484552
6	0x3f829de2	1.0204432
7	0x3f70fe3d	0.94137937
8	0x3f92fecc	1.1484008
9	0x3f723777	0.9461588
10	0x3f5a8f8e	0.853753
11	0x3f831f00	1.0243835
12	0x3f74bbd1	0.95599085
13	0x3f8a7304	1.081635
14	0x3f8c6ff9	1.0971671
15	0x3f8ce510	1.1007404
16	0x3f5d557c	0.86458564
17	0x3f607b7e	0.87688434
18	0x3f80be23	1.0058025
19	0x3f5f8447	0.87311214
20	0x3f9c1001	1.2192384
21	0x3f7f7ee9	0.99803025
22	0x3f7471ba	0.9548603
23	0x3f833cf2	1.0252974
24	0x3f8ff94b	1.1247953
25	0x3f5ca49a	0.8618866
26	0x3f6c00c3	0.9218866
27	0x3f76ce77	0.9640879
28	0x3f7031e7	0.93826145
29	0x3f924927	1.1428574
30	0x3f9180d3	1.1367439
31	0x3f6461c4	0.8921168
32	0x3f9bd63b	1.2174753
33	0x3f6a01a5	0.9140876
34	0x3f6e2606	0.9302677
35	0x3f7ab8bc	0.9793813
36	0x3f5b374f	0.8563127
37	0x3f83c7b0	1.0295315
38	0x3f86a6ea	1.0519688
39	0x3f7af6d6	0.9803289
40	0x3f6b4c2f	0.9191312
41	0x3f900fc2	1.1254809
42	0x3f504ed6	0.81370294
43	0x3f81a053	1.0127052
44	0x3f81f67c	1.0153346
45	0x3f7e3a43	0.9930765
46	0x3f770dd7	0.9650549
47	0x3f5bc7b1	0.8585158
48	0x3f58ff29	0.84764344
49	0x3f647a11	0.8924876
50	0x3f8c9e68	1.0985842
51	0x3f91a553	1.1378578
52	0x3f805531	1.0025998
53	0x3f8c5095	1.0962092
54	0x3f950506	1.1642158

tabnet.encoder.initial_bn.bias f4 [55]
0	0x3db186c8	0.086682856
1	0xbe47506b	-0.19464271
2	0xbe400a5c	-0.18753952
3	0xbe1d5eef	-0.15368246
4	0x3e049a6b	0.12949531
5	0x3e2b10f2	0.16705683
6	0xbdf4d928	-0.11955482
7	0xbe5178ef	-0.20456289
8	0xbdb55dea	-0.08855803
9	0x3d5cbaca	0.053889073
10	0x3d0bf790	0.03417164
11	0xbc32614a	-0.010887453
12	0x3e05eada	0.1307787
13	0x3dfd1c7d	0.12358949
14	0x3c6ba76d	0.014383179
15	0xbd853eb8	-0.06506103
16	0x3e6b9ad0	0.23008275
17	0xbd5a02dd	-0.053225387
18	0xbd85fa1c	-0.06541845
19	0x3d098c72	0.033581205
20	0x3dff5681	0.12467671
21	0xbda7268d	-0.0816165
22	0x3ccad867	0.024761392
23	0x3e787455	0.24263127
24	0x3bc536a9	0.006018479
25	0x3d89490d	0.067033865
26	0xbce00bfa	-0.02734946
27	0x3b92f6fd	0.0044850097
28	0x3a5fdc8e	0.000853964
29	0xbc962c12	-0.018331561
30	0x3d2c097a	0.042001225
31	0xbe008909	-0.12552275
32	0x3d878d82	0.06618787
33	0x3d5c87e7	0.053840544
34	0x3dd36fa4	0.10324028
35	0xbe214412	-0.15748623
36	0x3cc489a2	0.02399141
37	0xbe2c127b	-0.16803925
38	0x3d0848ac	0.03327243
39	0x3e6839fb	0.22678368
40	0x3e1ccc14	0.15312225
41	0xbdb2b3e1	-0.087257154
42	0xbdf42984	-0.11921981
43	0x3ca62b28	0.02028425
44	0xbe1c0ce9	-0.152393
45	0x3e1202ac	0.14258832
46	0x3d49d1de	0.04927241
47	0x3e655bb3	0.22398262
48	0x3e4ec67c	0.20192903
49	0xbbc20384	-0.0059208293
50	0xbcf6d622	-0.030131403
51	0xbe3e4848	-0.1858226
52	0xbd6c69e4	-0.057718173
53	0xbc88ad2c	-0.016684137
54	0x3ab4488e	0.0013754533

tabnet.encoder.initial_bn.running_mean f4 [55]
0	0x3b9eba43	0.0048439815
1	0x3e19738b	0.14985482
2	0x3d258c98	0.040417284
3	0x3e277599	0.16353454
4	0x3cdb08c5	0.02673758
5	0x3e32eba2	0.174727
6	0x3c7eb0eb	0.01554511
7	0x3e3f04b1	0.18654133
8	0x3b7480dc	0.0037308251
9	0x3c3760ac	0.011192482
10	0x3b7480dc	0.0037308251
11	0x3e2a019b	0.16602175
12	0x3b230097	0.0024872178
13	0x3be020cd	0.0068398477
14	0x3b230097	0.0024872178
15	0x3d927286	0.0715075
16	0x3b230097	0.0024872178
17	0x3d3760ac	0.044769928
18	0x3d8d5a80	0.06902027
19	0x3c84707c	0.016166918
20	0x3b7480dc	0.0037308251
21	0x3c0ea083	0.008705261
22	0x3e0a2b7e	0.13493153
23	0x3aa30097	0.0012436089
24	0x3cd0d8c2	0.025493983
25	0x3c7480dc	0.014923301
26	0x3c2d309f	0.010570674
27	0x3ca81899	0.020519542
28	0x3e13b885	0.14425857
29	0x3d927286	0.0715075
30	0x3df33ade	0.118764624
31	0x3c84707c	0.016166918
32	0x3d5b08c5	0.05347516
33	0x3df70ce6	0.12063007
34	0x3cad309f	0.021141348
35	0x3c9de894	0.019275941
36	0x3d9de894	0.077103764
37	0x3d4e4cbb	0.050366145
38	0x3c0ea083	0.008705261
39	0x3c18d08c	0.009327065
40	0x3b8ea083	0.0043526306
41	0x3e04707c	0.12933534
42	0x3c4190b1	0.011814282
43	0x3d4934bd	0.04912256
44	0x3e3a8faa	0.18218866
45	0x3c04707c	0.008083459
46	0x3e277599	0.16353454
47	0x3c98d08c	0.01865413
48	0x3af480dc	0.0018654126
49	0x3af480dc	0.0018654126
50	0x3b8ea083	0.0043526306
51	0x3c4bc0bc	0.012436088
52	0x3dcbc0bc	0.099488705
53	0x3d01e479	0.03171203
54	0x3d3f04b1	0.046635333

tabnet.encoder.initial_bn.running_var f4 [55]
0	0x3f806f07	1.0033883
1	0x3f577754	0.84166455
2	0x3f577754	0.84166455
3	0x3f553149	0.8327833
4	0x3f553149	0.8327833
5	0x3f52f4ea	0.8240496
6	0x3f52f4ea	0.8240496
7	0x3f503ada	0.813398
8	0x3f503ada	0.813398
9	0x3f51fef9	0.8202968
10	0x3f503ada	0.813398
11	0x3f54b9a1	0.8309575
12	0x3f4febc5	0.8121913
13	0x3f50fbe2	0.8163434
14	0x3f4febc5	0.8121913
15	0x3f5ac10f	0.85450834
16	0x3f4febc5	0.8121913
17	0x3f581557	0.8440756
18	0x3f5a9654	0.8538563
19	0x3f531707	0.8245701
20	0x3f503ada	0.813398
21	0x3f516c8d	0.8180626
22	0x3f595ec2	0.84910214
23	0x3f4f9b93	0.8109676
24	0x3f54f5f8	0.8318782
25	0x3f52d293	0.8235256
26	0x3f51dac8	0.8197446
27	0x3f53fe07	0.8280949
28	0x3f584028	0.84472895
29	0x3f5ac10f	0.85450834
30	0x3f5ac10f	0.85450834
31	0x3f531707	0.8245701
32	0x3f592a38	0.84830046
33	0x3f5aa164	0.8540251
34	0x3f541dea	0.82858145
35	0x3f53bd5e	0.82710826
36	0x3f5b11a0	0.8557377
37	0x3f58cd60	0.8468838
38	0x3f516c8d	0.8180626
39	0x3f519191	0.8186274
40	0x3f5061f3	0.8139946
41	0x3f59edd3	0.85128516
42	0x3f5222e0	0.82084465
43	0x3f58a65c	0.84628844
44	0x3f51473c	0.8174932
45	0x3f51473c	0.8174932
46	0x3f553149	0.8327833
47	0x3f539c96	0.82660806
48	0x3f4fc3c8	0.81158113
49	0x3f4fc3c8	0.81158113
50	0x3f5061f3	0.8139946
51	0x3f52468c	0.82138896
52	0x3f5b7b65	0.8573516
53	0x3f5613e9	0.8362413
54	0x3f58551d	0.8450487

tabnet.encoder.initial_splitter.shared.shared_layers.0.weight f4 [32, 55]
0	0x3e63ebbd	0.22257896
1	0x3f8a5838	1.0808172
2	0xbdd7d658	-0.1053893
3	0x3edbb6aa	0.429128
4	0x3e791485	0.24324234
5	0xbdc6fcc3	-0.09716179
6	0xbf1bb3fd	-0.60821515
7	0x3f8b0fbe	1.0864179
8	0xbefa96e7	-0.48943254
9	0xbf8211c2	-1.0161669
10	0xbeaad467	-0.33365175
11	0x3f033d9b	0.5126588
12	0xbf09ac2f	-0.53778356
13	0x3e83ad41	0.2571812
14	0xbf15d7f6	-0.58532655
15	0x3e52e22a	0.20594087
16	0x3e9077ae	0.28216308
17	0x3e8d6fed	0.27624455
18	0xbe88f0a6	-0.267461
19	0xbdb09ebf	-0.086240284
20	0xbf0c6c94	-0.5485318
21	0x3d44632b	0.047946136
22	0xbe419209	-0.18903364
23	0xbb2a275e	-0.0025963406
24	0xbef1df50	-0.47240686
25	0xbeb170de	-0.34656423
26	0x3e6b03ee	0.22950718
27	0xbdc6a693	-0.0969974
28	0xbef1ea62	-0.47249132
29	0x3e8f2646	0.27958888
30	0x3e857287	0.2606394
31	0xbe8b445d	-0.27200595
32	0xbf23e185	-0.6401599
33	0x3ec0a2e0	0.37624264
34	0x3ee4dda4	0.44700348
35	0xbf81556a	-1.0104191
36	0xbe0ce7be	-0.13760278
37	0x3e510d24	0.20415169
38	0xbeb3ca21	-0.3511515
39	0xbd7fe9bc	-0.062478766
40	0x3dc898f9	0.09794802
41	0x3f2f9307	0.6858372
42	0x3ecc379e	0.39886183
43	0x3e623b5e	0.2209296
44	0x3cbf3d2e	0.023344602
45	0xbf2badd1	-0.670621
46	0x3ecc2476	0.39871567
47	0x3f2c2699	0.67246395
48	0x3e2ee60c	0.17079943
49	0x3f0c9cad	0.5492657
50	0xbe00d7a4	-0.1258226
51	0xbe472cff	-0.19450758
52	0x3f3f5a58	0.7474723
53	0xbeae89be	-0.34089464
54	0xbfaa9543	-1.3326801
55	0xbe826b07	-0.2547228
56	0xbd98c662	-0.074597135
57	0x3dabadf2	0.08382787
58	0x3f832a9e	1.0247381
59	0x3cf915e8	0.030405954
60	0xbdafe181	-0.08587933
61	0xbf8118f3	-1.0085739
62	0x3e2599b7	0.16171919
63	0x3d115223	0.035478722
64	0xbef621d3	-0.4807268
65	0x3eaf5089	0.3424113
66	0x3f031435	0.5120271
67	0x3d9fe295	0.07806889
68	0xbe12e846	-0.14346418
69	0x3dc8af90	0.09799111
70	0xbf2774c7	-0.65412563
71	0x3db807d6	0.089858696
72	0xbd4af73b	-0.049552184
73	0xbf35b072	-0.7097236
74	0x3da60733	0.08106842
75	0xbf18903a	-0.5959507
76	0xbe8ac3f3	-0.27102622
77	0xbf91afa4	-1.1381726
78	0x3ee7479a	0.45171815
79	0x3f103db6	0.56344163
80	0xbf178872	-0.59192574
81	0xbf6da3c4	-0.9282801
82	0x3ed6b214	0.41932738
83	0xbe4400df	-0.19140957
84	0xbebf257d	-0.3733329
85	0xbe98b9cf	-0.2982926
86	0x3d6b334a	0.05742196
87	0xbec8491e	-0.39118284
88	0xbe540b97	-0.20707546
89	0x3f9c18df	1.219509
90	0x3d95bb82	0.07311155
91	0x3e95bc6f	0.29245326
92	0x3ec3ba49	0.38228062
93	0xbf6c5ccd	-0.923291
94	0x3d62b2ea	0.055346407
95	0xbf0e72eb	-0.556441
96	0x3e897867	0.26849672
97	0x3d5cab4a	0.05387429
98	0x3eeaa8c3	0.4583188
99	0x3f222298	0.63334036
100	0x3f032826	0.51233137
101	0x3ea456ed	0.3209757
102	0x3cb0bb5a	0.021573711
103	0x3efd0458	0.49417377
104	0x3eb4dd36	0.3532502
105	0xbf88f85f	-1.0700797
106	0x3e91f322	0.28505808
107	0xbf303f89	-0.68846947
108	0x3e5c5dc4	0.21520144
109	0xbf37a3c7	-0.7173428
110	0x3e9e4114	0.30909026
111	0x3e05aa84	0.13053328
112	0xbf032291	-0.5122462
113	0xbdc50168	-0.09619409
114	0x3f5b5a53	0.856847
115	0xbe10df1c	-0.1414761
116	0xbe5946d7	-0.2121843
117	0xbee99d8f	-0.4562802
118	0xbe91bc2c	-0.28463876
119	0x3ee9c62c	0.45659006
120	0xbe2a56be	-0.16634652
121	0xbe7d1d16	-0.24718127
122	0xbcf1b514	-0.02950529
123	0x3fb4176a	1.4069645
124	0xbea66080	-0.324955
125	0x3b5f68ce	0.0034089568
126	0x3f7a53dc	0.9778421
127	0x3ecfc856	0.40582532
128	0xbf714749	-0.942494
129	0x3ec85e03	0.39134225
130	0xbd403ce6	-0.046933077
131	0x3f63c6cf	0.8897523
132	0xbe0c2048	-0.1368419
133	0x3e1d00a2	0.15332273
134	0x3c55eaaf	0.013056441
135	0xbe5a1038	-0.2129525
136	0xbf1e56b6	-0.6185106
137	0xbed05e87	-0.4069712
138	0xbf0ac7bd	-0.54211026
139	0x3e10de94	0.14147407
140	0xbf3d70a0	-0.7399998
141	0xbd77b5bb	-0.060476046
142	0xbe2f5c8e	-0.1712515
143	0x3f04c760	0.5186672
144	0xbeae4aad	-0.34041348
145	0xbe9a4916	-0.30133885
146	0xbf1a8856	-0.6036428
147	0xbf761957	-0.96132416
148	0xbe410931	-0.18851162
149	0xbe540633	-0.2070549
150	0xbf16e481	-0.5894242
151	0x3ec8d646	0.39225978
152	0x3f2ef75c	0.6834619
153	0x3f1610a3	0.58619136
154	0xbef21ec4	-0.47289097
155	0x3ec3b974	0.38227427
156	0xbe7b620f	-0.24549125
157	0x3f45fb60	0.7733669
158	0x3d4222d5	0.0473965
159	0xbe66ccf2	-0.22539118
160	0x3e49189d	0.19638295
161	0x3f3acbc5	0.7296718
162	0xbab282e8	-0.0013619335
163	0x3ede4d2c	0.43418252
164	0x3f6efd68	0.9335542
165	0xbf28dddf	-0.6596355
166	0x3e29cb91	0.1658156
167	0xbe94132c	-0.28920877
168	0xbbe67be7	-0.0070338133
169	0xbea99fe3	-0.33129796
170	0xbf5235a2	-0.8211309
171	0xbf36be9c	-0.71384597
172	0xbe488fc4	-0.19586092
173	0x3f4cf461	0.8006039
174	0xbd4d5c21	-0.05013669
175	0xbeb1f7b9	-0.3475931
176	0xbf2a011e	-0.66407955
177	0x3f17c7a2	0.5928899
178	0xbed1e3a9	-0.40994003
179	0xbe895598	-0.26823115
180	0xbf4c3c3f	-0.7977943
181	0xbf4aa81d	-0.7916277
182	0x3e154ce3	0.14580111
183	0x3e852548	0.26005006
184	0x3eea525c	0.4576596
185	0x3e8bbf86	0.27294558
186	0x3e4c9095	0.19977029
187	0xbe660be3	-0.22465472
188	0x3ea26b05	0.31722274
189	0xbeb7f0c0	-0.35925865
190	0xbecb4c58	-0.39706683
191	0x3ecfb421	0.40567115
192	0xbef29264	-0.47377312
193	0x3e277896	0.16354594
194	0x3f30bb00	0.6903534
195	0xbba06057	-0.004894297
196	0xbd3678d7	-0.044548836
197	0xbe201b71	-0.15635468
198	0xbea2ea47	-0.31819364
199	0xbe589cba	-0.21153536
200	0xbd8110d5	-0.063020386
201	0x3e9a8996	0.30183095
202	0xbefab3ab	-0.489652
203	0x3f1a4f76	0.602775
204	0x3e3e848e	0.18605253
205	0xbef3a271	-0.4758487
206	0xbe80d7b8	-0.2516458
207	0xbe26d5f7	-0.16292559
208	0x3e9b447b	0.30325684
209	0xbdb27eb7	-0.08715575
210	0xbec7065f	-0.38872048
211	0x3eae20ce	0.34009403
212	0x3ef6355c	0.48087585
213	0xbee15717	-0.44011757
214	0x3f602ab7	0.8756518
215	0x3ebbc2ad	0.36671963
216	0x3f366044	0.7124064
217	0x3e96556a	0.2936204
218	0x3d4c428c	0.04986815
219	0x3fc57437	1.5426091
220	0x3f5926b9	0.8482471
221	0xbd215e7d	-0.03939675
222	0x3eb4d65d	0.35319796
223	0x3f210d3c	0.6291082
224	0xbee18fbf	-0.44054982
225	0x3ef9743e	0.48721498
226	0x3f4770a7	0.7790627
227	0x3f0f8bcc	0.5607269
228	0xbf53141c	-0.8245256
229	0xbe891007	-0.2677004
230	0x3eef1433	0.46695098
231	0x3e084ddb	0.1331095
232	0xbf0c1718	-0.5472274
233	0x3df19b2c	0.11797175
234	0xbf1a0aab	-0.6017253
235	0xbf73f8d6	-0.9530157
236	0x3ee37f17	0.444329
237	0x3ea8d95a	0.32978326
238	0xbe8204da	-0.25394326
239	0xbeed3bf5	-0.46334806
240	0x3fb6d026	1.4282272
241	0xbeb5a20f	-0.35475203
242	0xbee73e9f	-0.45164964
243	0xbe127e4b	-0.1430599
244	0x3c2bbeb2	0.010482477
245	0x3e990836	0.29889077
246	0x3f8c1098	1.0942564
247	0x3e858b24	0.26082718
248	0x3f2b8106	0.6699375
249	0xbe0fe492	-0.14052036
250	0xbdc59b20	-0.09648728
251	0xbe5f54f8	-0.21809757
252	0x3f22e0bb	0.6362416
253	0x3ebe9336	0.37221688
254	0x3e19e443	0.15028481
255	0x3d5c0052	0.053711243

tabnet.encoder.initial_splitter.shared.shared_layers.1.weight f4 [32, 16]
0	0x3f1ab891	0.60437876
1	0x3fa7a338	1.3096685
2	0xbf1f4ab1	-0.62223345
3	0xbebe3dc8	-0.3715651
4	0xbee7a4ec	-0.45243013
5	0xbe712e8c	-0.23552912
6	0xbd9719c3	-0.073779605
7	0x3f4f989d	0.81092244
8	0x3e0dea35	0.13858874
9	0x3ed139e6	0.40864486
10	0xbe3c8377	-0.18409525
11	0x3ccea503	0.025225168
12	0xbfad0dae	-1.35198
13	0xbd563b5c	-0.052302703
14	0x3f72444d	0.9463547
15	0xbec32730	-0.38115835
16	0x3e468547	0.19386779
17	0xbe9e891a	-0.30963975
18	0x3edbf925	0.4296352
19	0xbf4206a0	-0.7579136
20	0x3eb83c93	0.35983714
21	0x3d4ef7e6	0.050529383
22	0xbedaca44	-0.4273244
23	0x3e972057	0.2951686
24	0xbf1c5bf5	-0.61077815
25	0xbf55635a	-0.83354723
26	0xbdf9bd67	-0.12194329
27	0xbe8eea73	-0.27913246
28	0x3cd21290	0.025643617
29	0x3f234c7f	0.637886
30	0x3d8a76f2	0.06760968
31	0xbfa2bdcc	-1.2714171
32	0xbf37d764	-0.71813035
33	0xbf1f9832	-0.62341607
34	0x3f820292	1.0157034
35	0x3ef30837	0.47467205
36	0xbe68510e	-0.2268717
37	0xbe9024cb	-0.2815307
38	0x3e983052	0.29724365
39	0x3c82c141	0.015961291
40	0xbcec674b	-0.028857848
41	0xbf870a77	-1.0550069
42	0xbc994331	-0.018708797
43	0xbf4439c8	-0.7665067
44	0xc0117b65	-2.2731564
45	0x3f42e8c7	0.7613644
46	0x3f7a8315	0.97856265
47	0x3f054648	0.52060366
48	0xbe6d3b68	-0.23167193
49	0x3db904cd	0.09034119
50	0x3ed6fb47	0.41988584
51	0x3e595239	0.21222772
52	0xbf8dfa87	-1.109208
53	0x3f49df3a	0.7885624
54	0x3db09f81	0.08624173
55	0x3e6ef819	0.23336829
56	0x3f9bace6	1.216214
57	0xbd9df9c4	-0.07713655
58	0xbef548fe	-0.4790725
59	0xbf104126	-0.5634941
60	0xbf9004ec	-1.1251502
61	0x3f4b3827	0.79382557
62	0x3d64103f	0.055679556
63	0xbd2b8d1a	-0.04188261
64	0xbef19ea3	-0.47191343
65	0xbf21fcfe	-0.6327666
66	0x3edabf19	0.4272392
67	0xbde9443c	-0.11389968
68	0xbec85fdc	-0.39135635
69	0x3e8d279b	0.2756928
70	0x3eb679c1	0.35639766
71	0xbe9e4b35	-0.30916753
72	0x3e9753f5	0.29556242
73	0xbc15777f	-0.009122728
74	0xbf9ac8c0	-1.2092514
75	0x3f2b9859	0.6702934
76	0x3eeb5053	0.4595972
77	0x3ed4f311	0.41591695
78	0xbd8e3332	-0.069433585
79	0xbd72d46f	-0.059284624
80	0xbe0a2e3c	-0.134942
81	0xbf50416a	-0.81349814
82	0xbf8b8f05	-1.0903021
83	0xbf106c98	-0.564157
84	0x3fefb0ed	1.8725868
85	0xbed97df9	-0.42478922
86	0x3ede0074	0.4335972
87	0xbf15c205	-0.58499175
88	0xbe84a79d	-0.2590913
89	0x3ecfff4f	0.40624472
90	0xbf028bc5	-0.5099452
91	0x3f89249d	1.0714298
92	0xbfeaa02c	-1.833013
93	0xbf4ab3a9	-0.7918039
94	0xbf8de4b1	-1.1085416
95	0xbf98a5bc	-1.1925578
96	0x3ea626cb	0.32451472
97	0x3f0a1c4a	0.53949416
98	0xbe9c0c22	-0.30478007
99	0x3ef7d955	0.48408
100	0xbeaea770	-0.3411212
101	0x3e377847	0.17916976
102	0xbf2d5eb2	-0.6772262
103	0xbfc0bef9	-1.505828
104	0x3f738510	0.9512491
105	0x3f3d3da7	0.739222
106	0xbe8bca52	-0.27302796
107	0x3ec40246	0.38282984
108	0xbf9aa3c9	-1.2081233
109	0xbf053eeb	-0.5204913
110	0xc00ce9a4	-2.2017603
111	0xbed9917e	-0.42493814
112	0x3da4c5a4	0.080455095
113	0x3e29bf5f	0.16576909
114	0xbf904504	-1.1271062
115	0xbf4513b1	-0.7698317
116	0x3e811589	0.25211743
117	0x3f58dfca	0.84716475
118	0xbef58bf1	-0.4795833
119	0xbf373eab	-0.7158
120	0x3edf16c4	0.43572056
121	0x3d829663	0.0637634
122	0xbe248477	-0.16066156
123	0x3f9784b4	1.1837373
124	0x3f29164e	0.6604966
125	0x3edc87d2	0.43072373
126	0x3ea02e27	0.3128521
127	0xbef9b2dd	-0.48769274
128	0x3e99af0a	0.30016357
129	0xbf54c73c	-0.8311651
130	0x3f0a7029	0.5407739
131	0x3f6b2dca	0.91866744
132	0x3eb49017	0.35266182
133	0xbc977907	-0.018490328
134	0xbdf4b024	-0.11947659
135	0x3f2b6a56	0.6695913
136	0x3e19812c	0.14990681
137	0xbea80804	-0.32818615
138	0x3be30998	0.006928634
139	0x3f13569f	0.5755405
140	0xbf8f0341	-1.1172868
141	0x3f4792fc	0.77958655
142	0xbdf48e59	-0.11941213
143	0xbeb0bcd5	-0.34519067
144	0x3c2b4b55	0.010454972
145	0x3e400048	0.18750107
146	0xbe67c69a	-0.22634354
147	0x3f76cfbd	0.96410733
148	0x3fcc0c5d	1.5941273
149	0x3f6b790b	0.9198157
150	0xbe91ad58	-0.28452563
151	0xbf08e613	-0.53476065
152	0x3e368558	0.17824304
153	0xbe12fa67	-0.14353333
154	0xbe0a9da7	-0.13536702
155	0xbf2d6306	-0.6772922
156	0xbf50a2fd	-0.814987
157	0x3e46df72	0.19421175
158	0xbee73ac2	-0.45162016
159	0x3e17bc29	0.14817871
160	0xbdc30137	-0.09521716
161	0x3f7d4496	0.9893278
162	0x3ec97d55	0.39353433
163	0x3f639597	0.8890013
164	0xbd7a07fb	-0.061042767
165	0x3d5c35a8	0.053762108
166	0x3f254a7f	0.64566797
167	0x3f0e91c1	0.5569115
168	0xbdcb96a5	-0.099408425
169	0xbf38d89f	-0.7220554
170	0x3f9213ba	1.141227
171	0xbe6025a3	-0.21889357
172	0xbf8322ce	-1.0244997
173	0x3ecc30d4	0.39881003
174	0x3f8485e0	1.0353355
175	0x3ec919e1	0.39277557
176	0x3e63bb2f	0.22239374
177	0x3f07237c	0.5278852
178	0x3f478a4d	0.77945405
179	0x3f9d4490	1.2286549
180	0x3f3ad974	0.7298806
181	0x3f83cb6e	1.0296457
182	0x3da748b1	0.08168162
183	0xbf00b29d	-0.5027254
184	0x3f9e2154	1.2353921
185	0x3f3b8231	0.7324553
186	0x3e2070bc	0.15668005
187	0xbf749951	-0.9554644
188	0xbe68602e	-0.2269294
189	0x3da4d211	0.080478795
190	0xbf5f9ae9	-0.8734575
191	0x3ee1d3c6	0.44106883
192	0x3e9cd737	0.30632946
193	0xbe70435f	-0.234632
194	0xbf0ba3c7	-0.5454678
195	0x3edce399	0.43142393
196	0x3e68a06c	0.22717446
197	0xbddf16ea	-0.108930424
198	0x3c078075	0.008270373
199	0xbf4b1291	-0.79325205
200	0x3e98c853	0.29840335
201	0xbe088571	-0.13332154
202	0x3d8209d9	0.063495345
203	0xbeb4c76d	-0.353084
204	0xbef735c9	-0.48283222
205	0xbece6576	-0.40311784
206	0x3e6d24b5	0.23158534
207	0xbf0c98a0	-0.5492039
208	0xbe278d78	-0.1636256
209	0x3f8dfc11	1.109255
210	0x3f34528a	0.70438445
211	0xbeb4065b	-0.351611
212	0xbe131d4c	-0.14366645
213	0x3e68db31	0.22739865
214	0xbf0e8173	-0.55666274
215	0xbe8b504f	-0.27209708
216	0xbe9d45b4	-0.30717242
217	0x3eaf5e6f	0.34251735
218	0x3fe18f6c	1.7621894
219	0xbd5c7052	-0.053818054
220	0x3fdfb7eb	1.7478002
221	0xbe8a5524	-0.27018082
222	0x3e0700fc	0.1318397
223	0xbea95db6	-0.33079308
224	0x3f841490	1.0318775
225	0x3ee09c2d	0.43869153
226	0xbfcf839b	-1.6212038
227	0xbed77e3f	-0.42088506
228	0x3f456cfc	0.7711942
229	0x3e699812	0.22811916
230	0xbffcbdc2	-1.974541
231	0xbe78dc74	-0.24302846
232	0xbee97296	-0.45595235
233	0xbe2198c3	-0.1578093
234	0x3cf36d50	0.02971521
235	0xbfb0771a	-1.3786347
236	0x3f259e65	0.64694816
237	0xbe4f1ef7	-0.20226656
238	0xbec462cd	-0.3835663
239	0xbe970408	-0.29495263
240	0xbeec2755	-0.46123758
241	0xbe04b9c8	-0.12961495
242	0x3dc35a5d	0.0953872
243	0xbf623ed4	-0.8837712
244	0xbd1d4cc2	-0.03840328
245	0x3fa4343d	1.2828442
246	0xbebd0e03	-0.36924753
247	0xbf1be276	-0.60892427
248	0xbf063e2b	-0.5243861
249	0x3f977011	1.1831075
250	0x3eb1494c	0.34626234
251	0xbe136513	-0.14394026
252	0x3f98cf4f	1.1938266
253	0xbbd97e02	-0.0066373358
254	0xbe750d94	-0.23930961
255	0x3f5a2d36	0.85225236

tabnet.encoder.initial_splitter.shared.glu_layers.0.fc.weight f4 [32, 55]
0	0x3e63ebbd	0.22257896
1	0x3f8a5838	1.0808172
2	0xbdd7d658	-0.1053893
3	0x3edbb6aa	0.429128
4	0x3e791485	0.24324234
5	0xbdc6fcc3	-0.09716179
6	0xbf1bb3fd	-0.60821515
7	0x3f8b0fbe	1.0864179
8	0xbefa96e7	-0.48943254
9	0xbf8211c2	-1.0161669
10	0xbeaad467	-0.33365175
11	0x3f033d9b	0.5126588
12	0xbf09ac2f	-0.53778356
13	0x3e83ad41	0.2571812
14	0xbf15d7f6	-0.58532655
15	0x3e52e22a	0.20594087
16	0x3e9077ae	0.28216308
17	0x3e8d6fed	0.27624455
18	0xbe88f0a6	-0.267461
19	0xbdb09ebf	-0.086240284
20	0xbf0c6c94	-0.5485318
21	0x3d44632b	0.047946136
22	0xbe419209	-0.18903364
23	0xbb2a275e	-0.0025963406
24	0xbef1df50	-0.47240686
25	0xbeb170de	-0.34656423
26	0x3e6b03ee	0.22950718
27	0xbdc6a693	-0.0969974
28	0xbef1ea62	-0.47249132
29	0x3e8f2646	0.27958888
30	0x3e857287	0.2606394
31	0xbe8b445d	-0.27200595
32	0xbf23e185	-0.6401599
33	0x3ec0a2e0	0.37624264
34	0x3ee4dda4	0.44700348
35	0xbf81556a	-1.0104191
36	0xbe0ce7be	-0.13760278
37	0x3e510d24	0.20415169
38	0xbeb3ca21	-0.3511515
39	0xbd7fe9bc	-0.062478766
40	0x3dc898f9	0.09794802
41	0x3f2f9307	0.6858372
42	0x3ecc379e	0.39886183
43	0x3e623b5e	0.2209296
44	0x3cbf3d2e	0.023344602
45	0xbf2badd1	-0.670621
46	0x3ecc2476	0.39871567
47	0x3f2c2699	0.67246395
48	0x3e2ee60c	0.17079943
49	0x3f0c9cad	0.5492657
50	0xbe00d7a4	-0.1258226
51	0xbe472cff	-0.19450758
52	0x3f3f5a58	0.7474723
53	0xbeae89be	-0.34089464
54	0xbfaa9543	-1.3326801
55	0xbe826b07	-0.2547228
56	0xbd98c662	-0.074597135
57	0x3dabadf2	0.08382787
58	0x3f832a9e	1.0247381
59	0x3cf915e8	0.030405954
60	0xbdafe181	-0.08587933
61	0xbf8118f3	-1.0085739
62	0x3e2599b7	0.16171919
63	0x3d115223	0.035478722
64	0xbef621d3	-0.4807268
65	0x3eaf5089	0.3424113
66	0x3f031435	0.5120271
67	0x3d9fe295	0.07806889
68	0xbe12e846	-0.14346418
69	0x3dc8af90	0.09799111
70	0xbf2774c7	-0.65412563
71	0x3db807d6	0.089858696
72	0xbd4af73b	-0.049552184
73	0xbf35b072	-0.7097236
74	0x3da60733	0.08106842
75	0xbf18903a	-0.5959507
76	0xbe8ac3f3	-0.27102622
77	0xbf91afa4	-1.1381726
78	0x3ee7479a	0.45171815
79	0x3f103db6	0.56344163
80	0xbf178872	-0.59192574
81	0xbf6da3c4	-0.9282801
82	0x3ed6b214	0.41932738
83	0xbe4400df	-0.19140957
84	0xbebf257d	-0.3733329
85	0xbe98b9cf	-0.2982926
86	0x3d6b334a	0.05742196
87	0xbec8491e	-0.39118284
88	0xbe540b97	-0.20707546
89	0x3f9c18df	1.219509
90	0x3d95bb82	0.07311155
91	0x3e95bc6f	0.29245326
92	0x3ec3ba49	0.38228062
93	0xbf6c5ccd	-0.923291
94	0x3d62b2ea	0.055346407
95	0xbf0e72eb	-0.556441
96	0x3e897867	0.26849672
97	0x3d5cab4a	0.05387429
98	0x3eeaa8c3	0.4583188
99	0x3f222298	0.63334036
100	0x3f032826	0.51233137
101	0x3ea456ed	0.3209757
102	0x3cb0bb5a	0.021573711
103	0x3efd0458	0.49417377
104	0x3eb4dd36	0.3532502
105	0xbf88f85f	-1.0700797
106	0x3e91f322	0.28505808
107	0xbf303f89	-0.68846947
108	0x3e5c5dc4	0.21520144
109	0xbf37a3c7	-0.7173428
110	0x3e9e4114	0.30909026
111	0x3e05aa84	0.13053328
112	0xbf032291	-0.5122462
113	0xbdc50168	-0.09619409
114	0x3f5b5a53	0.856847
115	0xbe10df1c	-0.1414761
116	0xbe5946d7	-0.2121843
117	0xbee99d8f	-0.4562802
118	0xbe91bc2c	-0.28463876
119	0x3ee9c62c	0.45659006
120	0xbe2a56be	-0.16634652
121	0xbe7d1d16	-0.24718127
122	0xbcf1b514	-0.02950529
123	0x3fb4176a	1.4069645
124	0xbea66080	-0.324955
125	0x3b5f68ce	0.0034089568
126	0x3f7a53dc	0.9778421
127	0x3ecfc856	0.40582532
128	0xbf714749	-0.942494
129	0x3ec85e03	0.39134225
130	0xbd403ce6	-0.046933077
131	0x3f63c6cf	0.8897523
132	0xbe0c2048	-0.1368419
133	0x3e1d00a2	0.15332273
134	0x3c55eaaf	0.013056441
135	0xbe5a1038	-0.2129525
136	0xbf1e56b6	-0.6185106
137	0xbed05e87	-0.4069712
138	0xbf0ac7bd	-0.54211026
139	0x3e10de94	0.14147407
140	0xbf3d70a0	-0.7399998
141	0xbd77b5bb	-0.060476046
142	0xbe2f5c8e	-0.1712515
143	0x3f04c760	0.5186672
144	0xbeae4aad	-0.34041348
145	0xbe9a4916	-0.30133885
146	0xbf1a8856	-0.6036428
147	0xbf761957	-0.96132416
148	0xbe410931	-0.18851162
149	0xbe540633	-0.2070549
150	0xbf16e481	-0.5894242
151	0x3ec8d646	0.39225978
152	0x3f2ef75c	0.6834619
153	0x3f1610a3	0.58619136
154	0xbef21ec4	-0.47289097
155	0x3ec3b974	0.38227427
156	0xbe7b620f	-0.24549125
157	0x3f45fb60	0.7733669
158	0x3d4222d5	0.0473965
159	0xbe66ccf2	-0.22539118
160	0x3e49189d	0.19638295
161	0x3f3acbc5	0.7296718
162	0xbab282e8	-0.0013619335
163	0x3ede4d2c	0.43418252
164	0x3f6efd68	0.9335542
165	0xbf28dddf	-0.6596355
166	0x3e29cb91	0.1658156
167	0xbe94132c	-0.28920877
168	0xbbe67be7	-0.0070338133
169	0xbea99fe3	-0.33129796
170	0xbf5235a2	-0.8211309
171	0xbf36be9c	-0.71384597
172	0xbe488fc4	-0.19586092
173	0x3f4cf461	0.8006039
174	0xbd4d5c21	-0.05013669
175	0xbeb1f7b9	-0.3475931
176	0xbf2a011e	-0.66407955
177	0x3f17c7a2	0.5928899
178	0xbed1e3a9	-0.40994003
179	0xbe895598	-0.26823115
180	0xbf4c3c3f	-0.7977943
181	0xbf4aa81d	-0.7916277
182	0x3e154ce3	0.14580111
183	0x3e852548	0.26005006
184	0x3eea525c	0.4576596
185	0x3e8bbf86	0.27294558
186	0x3e4c9095	0.19977029
187	0xbe660be3	-0.22465472
188	0x3ea26b05	0.31722274
189	0xbeb7f0c0	-0.35925865
190	0xbecb4c58	-0.39706683
191	0x3ecfb421	0.40567115
192	0xbef29264	-0.47377312
193	0x3e277896	0.16354594
194	0x3f30bb00	0.6903534
195	0xbba06057	-0.004894297
196	0xbd3678d7	-0.044548836
197	0xbe201b71	-0.15635468
198	0xbea2ea47	-0.31819364
199	0xbe589cba	-0.21153536
200	0xbd8110d5	-0.063020386
201	0x3e9a8996	0.30183095
202	0xbefab3ab	-0.489652
203	0x3f1a4f76	0.602775
204	0x3e3e848e	0.18605253
205	0xbef3a271	-0.4758487
206	0xbe80d7b8	-0.2516458
207	0xbe26d5f7	-0.16292559
208	0x3e9b447b	0.30325684
209	0xbdb27eb7	-0.08715575
210	0xbec7065f	-0.38872048
211	0x3eae20ce	0.34009403
212	0x3ef6355c	0.48087585
213	0xbee15717	-0.44011757
214	0x3f602ab7	0.8756518
215	0x3ebbc2ad	0.36671963
216	0x3f366044	0.7124064
217	0x3e96556a	0.2936204
218	0x3d4c428c	0.04986815
219	0x3fc57437	1.5426091
220	0x3f5926b9	0.8482471
221	0xbd215e7d	-0.03939675
222	0x3eb4d65d	0.35319796
223	0x3f210d3c	0.6291082
224	0xbee18fbf	-0.44054982
225	0x3ef9743e	0.48721498
226	0x3f4770a7	0.7790627
227	0x3f0f8bcc	0.5607269
228	0xbf53141c	-0.8245256
229	0xbe891007	-0.2677004
230	0x3eef1433	0.46695098
231	0x3e084ddb	0.1331095
232	0xbf0c1718	-0.5472274
233	0x3df19b2c	0.11797175
234	0xbf1a0aab	-0.6017253
235	0xbf73f8d6	-0.9530157
236	0x3ee37f17	0.444329
237	0x3ea8d95a	0.32978326
238	0xbe8204da	-0.25394326
239	0xbeed3bf5	-0.46334806
240	0x3fb6d026	1.4282272
241	0xbeb5a20f	-0.35475203
242	0xbee73e9f	-0.45164964
243	0xbe127e4b	-0.1430599
244	0x3c2bbeb2	0.010482477
245	0x3e990836	0.29889077
246	0x3f8c1098	1.0942564
247	0x3e858b24	0.26082718
248	0x3f2b8106	0.6699375
249	0xbe0fe492	-0.14052036
250	0xbdc59b20	-0.09648728
251	0xbe5f54f8	-0.21809757
252	0x3f22e0bb	0.6362416
253	0x3ebe9336	0.37221688
254	0x3e19e443	0.15028481
255	0x3d5c0052	0.053711243

tabnet.encoder.initial_splitter.shared.glu_layers.0.bn.bn.weight f4 [32]
0	0x3f860442	1.0470049
1	0x3f685012	0.9074718
2	0x3f84c50d	1.0372635
3	0x3fa10188	1.2578592
4	0x3f76960e	0.96322715
5	0x3f4c25f0	0.7974539
6	0x3f82e408	1.022584
7	0x3f99348e	1.1969163
8	0x3f63a800	0.8892822
9	0x3f643fc1	0.8915978
10	0x3f863f24	1.0488019
11	0x3f58dd8d	0.8471306
12	0x3f776dea	0.9665209
13	0x3f8bd145	1.0923239
14	0x3f7c2429	0.98492676
15	0x3f83a987	1.0286111
16	0x3f842656	1.0324199
17	0x3f7672ea	0.96269095
18	0x3f85a73b	1.044166
19	0x3f8b7f40	1.0898209
20	0x3f7a8ac4	0.9786799
21	0x3f575161	0.8410855
22	0x3f846e81	1.0346223
23	0x3f9a881d	1.2072788
24	0x3f7057ad	0.9388378
25	0x3f844490	1.0333424
26	0x3f82507c	1.0180812
27	0x3f8148bc	1.0100322
28	0x3f82189a	1.0163758
29	0x3f6d8dd4	0.9279454
30	0x3f73edc7	0.95284694
31	0x3f873b7c	1.0565028

tabnet.encoder.initial_splitter.shared.glu_layers.0.bn.bn.bias f4 [32]
0	0xbe2a6d99	-0.1664337
1	0x3dc0d3ae	0.09415375
2	0x3e574322	0.21021703
3	0x3d6c32cd	0.057665635
4	0xbd0c3138	-0.034226626
5	0x3e08ee9a	0.1337227
6	0x3dda852d	0.106699325
7	0xbdfa9954	-0.12236276
8	0xbd92ded6	-0.07171409
9	0xbd72502a	-0.05915848
10	0xbdae0757	-0.08497494
11	0x3d95bc92	0.073113576
12	0x3e423845	0.18966778
13	0xbd8b6c7e	-0.068078026
14	0x3c83c604	0.016085632
15	0xbbdf67d5	-0.0068177977
16	0xb99f5d88	-0.0003039653
17	0xbde71366	-0.11282997
18	0x3dfa7e5a	0.12231131
19	0x3e316d94	0.17326957
20	0xbdd666c8	-0.10468823
21	0xbe43c87d	-0.19119449
22	0xbde470e6	-0.11154346
23	0x3dada111	0.084779866
24	0xbd699258	-0.05702433
25	0xbd899138	-0.067171514
26	0x3ce9375b	0.028468778
27	0xbdb9b825	-0.09068326
28	0xbd1ada5c	-0.0378059
29	0x3dfa5df5	0.12224952
30	0xbd19b40c	-0.03752522
31	0xbde03d30	-0.109491706

tabnet.encoder.initial_splitter.shared.glu_layers.0.bn.bn.running_mean f4 [32]
0	0xbe41d361	-0.18928291
1	0x3d4588f8	0.048226327
2	0x3ee78ca8	0.452245
3	0xbdf8340e	-0.12119304
4	0x3b965910	0.004588254
5	0x3dce127f	0.100621216
6	0xbdce4ddf	-0.100734465
7	0xbe1dbfb1	-0.15405156
8	0xbedb4253	-0.4282404
9	0x3dd224d0	0.10260928
10	0xbe2d5af5	-0.16929229
11	0xbeda4dc2	-0.4263745
12	0x3e26efca	0.1630241
13	0x3e77c6e0	0.24196959
14	0xbde292d2	-0.1106316
15	0x3e7a03c0	0.24415493
16	0xbdfedc22	-0.12444331
17	0xbea23c10	-0.3168645
18	0xbca39754	-0.01996962
19	0x3eca14f6	0.39469117
20	0x3e748473	0.2387865
21	0xbdc7d4d2	-0.09757389
22	0xbd1a6498	-0.03769359
23	0xbdce07dd	-0.100600936
24	0xbe99ddd5	-0.30052057
25	0x3dc7f9fa	0.09764476
26	0xbc904e0d	-0.017615343
27	0x3e5c4453	0.21510439
28	0x3f0fef12	0.5622417
29	0xbd3f4897	-0.046700086
30	0x3d940dc6	0.072291896
31	0x3e56e099	0.20984115

tabnet.encoder.initial_splitter.shared.glu_layers.0.bn.bn.running_var f4 [32]
0	0x4196dce1	18.857851
1	0x413facc0	11.979675
2	0x413c7038	11.777397
3	0x4115bf51	9.359208
4	0x4100f1ac	8.059002
5	0x4186b873	16.840063
6	0x4187d54c	16.979149
7	0x4184b63c	16.588982
8	0x41149a03	9.2876005
9	0x4105afac	8.355389
10	0x40b838b1	5.7569203
11	0x4151afca	13.105417
12	0x414af4c6	12.684759
13	0x40f970d6	7.795024
14	0x4189f2b3	17.243505
15	0x41b25bd7	22.294844
16	0x4104053c	8.251278
17	0x415e2626	13.884314
18	0x4179b0f9	15.605706
19	0x411adc25	9.678746
20	0x41504381	13.01648
21	0x411e2b90	9.885635
22	0x4129f877	10.62316
23	0x41b6c4ff	22.84619
24	0x4118bee1	9.546601
25	0x410fb85b	8.982509
26	0x4157ccc6	13.4874935
27	0x40f7a57a	7.73895
28	0x417b4019	15.703149
29	0x41207459	10.028405
30	0x41406de8	12.026833
31	0x417184ac	15.094891

tabnet.encoder.initial_splitter.shared.glu_layers.1.fc.weight f4 [32, 16]
0	0x3f1ab891	0.60437876
1	0x3fa7a338	1.3096685
2	0xbf1f4ab1	-0.62223345
3	0xbebe3dc8	-0.3715651
4	0xbee7a4ec	-0.45243013
5	0xbe712e8c	-0.23552912
6	0xbd9719c3	-0.073779605
7	0x3f4f989d	0.81092244
8	0x3e0dea35	0.13858874
9	0x3ed139e6	0.40864486
10	0xbe3c8377	-0.18409525
11	0x3ccea503	0.025225168
12	0xbfad0dae	-1.35198
13	0xbd563b5c	-0.052302703
14	0x3f72444d	0.9463547
15	0xbec32730	-0.38115835
16	0x3e468547	0.19386779
17	0xbe9e891a	-0.30963975
18	0x3edbf925	0.4296352
19	0xbf4206a0	-0.7579136
20	0x3eb83c93	0.35983714
21	0x3d4ef7e6	0.050529383
22	0xbedaca44	-0.4273244
23	0x3e972057	0.2951686
24	0xbf1c5bf5	-0.61077815
25	0xbf55635a	-0.83354723
26	0xbdf9bd67	-0.12194329
27	0xbe8eea73	-0.27913246
28	0x3cd21290	0.025643617
29	0x3f234c7f	0.637886
30	0x3d8a76f2	0.06760968
31	0xbfa2bdcc	-1.2714171
32	0xbf37d764	-0.71813035
33	0xbf1f9832	-0.62341607
34	0x3f820292	1.0157034
35	0x3ef30837	0.47467205
36	0xbe68510e	-0.2268717
37	0xbe9024cb	-0.2815307
38	0x3e983052	0.29724365
39	0x3c82c141	0.015961291
40	0xbcec674b	-0.028857848
41	0xbf870a77	-1.0550069
42	0xbc994331	-0.018708797
43	0xbf4439c8	-0.7665067
44	0xc0117b65	-2.2731564
45	0x3f42e8c7	0.7613644
46	0x3f7a8315	0.97856265
47	0x3f054648	0.52060366
48	0xbe6d3b68	-0.23167193
49	0x3db904cd	0.09034119
50	0x3ed6fb47	0.41988584
51	0x3e595239	0.21222772
52	0xbf8dfa87	-1.109208
53	0x3f49df3a	0.7885624
54	0x3db09f81	0.08624173
55	0x3e6ef819	0.23336829
56	0x3f9bace6	1.216214
57	0xbd9df9c4	-0.07713655
58	0xbef548fe	-0.4790725
59	0xbf104126	-0.5634941
60	0xbf9004ec	-1.1251502
61	0x3f4b3827	0.79382557
62	0x3d64103f	0.055679556
63	0xbd2b8d1a	-0.04188261
64	0xbef19ea3	-0.47191343
65	0xbf21fcfe	-0.6327666
66	0x3edabf19	0.4272392
67	0xbde9443c	-0.11389968
68	0xbec85fdc	-0.39135635
69	0x3e8d279b	0.2756928
70	0x3eb679c1	0.35639766
71	0xbe9e4b35	-0.30916753
72	0x3e9753f5	0.29556242
73	0xbc15777f	-0.009122728
74	0xbf9ac8c0	-1.2092514
75	0x3f2b9859	0.6702934
76	0x3eeb5053	0.4595972
77	0x3ed4f311	0.41591695
78	0xbd8e3332	-0.069433585
79	0xbd72d46f	-0.059284624
80	0xbe0a2e3c	-0.134942
81	0xbf50416a	-0.81349814
82	0xbf8b8f05	-1.0903021
83	0xbf106c98	-0.564157
84	0x3fefb0ed	1.8725868
85	0xbed97df9	-0.42478922
86	0x3ede0074	0.4335972
87	0xbf15c205	-0.58499175
88	0xbe84a79d	-0.2590913
89	0x3ecfff4f	0.40624472
90	0xbf028bc5	-0.5099452
91	0x3f89249d	1.0714298
92	0xbfeaa02c	-1.833013
93	0xbf4ab3a9	-0.7918039
94	0xbf8de4b1	-1.1085416
95	0xbf98a5bc	-1.1925578
96	0x3ea626cb	0.32451472
97	0x3f0a1c4a	0.53949416
98	0xbe9c0c22	-0.30478007
99	0x3ef7d955	0.48408
100	0xbeaea770	-0.3411212
101	0x3e377847	0.17916976
102	0xbf2d5eb2	-0.6772262
103	0xbfc0bef9	-1.505828
104	0x3f738510	0.9512491
105	0x3f3d3da7	0.739222
106	0xbe8bca52	-0.27302796
107	0x3ec40246	0.38282984
108	0xbf9aa3c9	-1.2081233
109	0xbf053eeb	-0.5204913
110	0xc00ce9a4	-2.2017603
111	0xbed9917e	-0.42493814
112	0x3da4c5a4	0.080455095
113	0x3e29bf5f	0.16576909
114	0xbf904504	-1.1271062
115	0xbf4513b1	-0.7698317
116	0x3e811589	0.25211743
117	0x3f58dfca	0.84716475
118	0xbef58bf1	-0.4795833
119	0xbf373eab	-0.7158
120	0x3edf16c4	0.43572056
121	0x3d829663	0.0637634
122	0xbe248477	-0.16066156
123	0x3f9784b4	1.1837373
124	0x3f29164e	0.6604966
125	0x3edc87d2	0.43072373
126	0x3ea02e27	0.3128521
127	0xbef9b2dd	-0.48769274
128	0x3e99af0a	0.30016357
129	0xbf54c73c	-0.8311651
130	0x3f0a7029	0.5407739
131	0x3f6b2dca	0.91866744
132	0x3eb49017	0.35266182
133	0xbc977907	-0.018490328
134	0xbdf4b024	-0.11947659
135	0x3f2b6a56	0.6695913
136	0x3e19812c	0.14990681
137	0xbea80804	-0.32818615
138	0x3be30998	0.006928634
139	0x3f13569f	0.5755405
140	0xbf8f0341	-1.1172868
141	0x3f4792fc	0.77958655
142	0xbdf48e59	-0.11941213
143	0xbeb0bcd5	-0.34519067
144	0x3c2b4b55	0.010454972
145	0x3e400048	0.18750107
146	0xbe67c69a	-0.22634354
147	0x3f76cfbd	0.96410733
148	0x3fcc0c5d	1.5941273
149	0x3f6b790b	0.9198157
150	0xbe91ad58	-0.28452563
151	0xbf08e613	-0.53476065
152	0x3e368558	0.17824304
153	0xbe12fa67	-0.14353333
154	0xbe0a9da7	-0.13536702
155	0xbf2d6306	-0.6772922
156	0xbf50a2fd	-0.814987
157	0x3e46df72	0.19421175
158	0xbee73ac2	-0.45162016
159	0x3e17bc29	0.14817871
160	0xbdc30137	-0.09521716
161	0x3f7d4496	0.9893278
162	0x3ec97d55	0.39353433
163	0x3f639597	0.8890013
164	0xbd7a07fb	-0.061042767
165	0x3d5c35a8	0.053762108
166	0x3f254a7f	0.64566797
167	0x3f0e91c1	0.5569115
168	0xbdcb96a5	-0.099408425
169	0xbf38d89f	-0.7220554
170	0x3f9213ba	1.141227
171	0xbe6025a3	-0.21889357
172	0xbf8322ce	-1.0244997
173	0x3ecc30d4	0.39881003
174	0x3f8485e0	1.0353355
175	0x3ec919e1	0.39277557
176	0x3e63bb2f	0.22239374
177	0x3f07237c	0.5278852
178	0x3f478a4d	0.77945405
179	0x3f9d4490	1.2286549
180	0x3f3ad974	0.7298806
181	0x3f83cb6e	1.0296457
182	0x3da748b1	0.08168162
183	0xbf00b29d	-0.5027254
184	0x3f9e2154	1.2353921
185	0x3f3b8231	0.7324553
186	0x3e2070bc	0.15668005
187	0xbf749951	-0.9554644
188	0xbe68602e	-0.2269294
189	0x3da4d211	0.080478795
190	0xbf5f9ae9	-0.8734575
191	0x3ee1d3c6	0.44106883
192	0x3e9cd737	0.30632946
193	0xbe70435f	-0.234632
194	0xbf0ba3c7	-0.5454678
195	0x3edce399	0.43142393
196	0x3e68a06c	0.22717446
197	0xbddf16ea	-0.108930424
198	0x3c078075	0.008270373
199	0xbf4b1291	-0.79325205
200	0x3e98c853	0.29840335
201	0xbe088571	-0.13332154
202	0x3d8209d9	0.063495345
203	0xbeb4c76d	-0.353084
204	0xbef735c9	-0.48283222
205	0xbece6576	-0.40311784
206	0x3e6d24b5	0.23158534
207	0xbf0c98a0	-0.5492039
208	0xbe278d78	-0.1636256
209	0x3f8dfc11	1.109255
210	0x3f34528a	0.70438445
211	0xbeb4065b	-0.351611
212	0xbe131d4c	-0.14366645
213	0x3e68db31	0.22739865
214	0xbf0e8173	-0.55666274
215	0xbe8b504f	-0.27209708
216	0xbe9d45b4	-0.30717242
217	0x3eaf5e6f	0.34251735
218	0x3fe18f6c	1.7621894
219	0xbd5c7052	-0.053818054
220	0x3fdfb7eb	1.7478002
221	0xbe8a5524	-0.27018082
222	0x3e0700fc	0.1318397
223	0xbea95db6	-0.33079308
224	0x3f841490	1.0318775
225	0x3ee09c2d	0.43869153
226	0xbfcf839b	-1.6212038
227	0xbed77e3f	-0.42088506
228	0x3f456cfc	0.7711942
229	0x3e699812	0.22811916
230	0xbffcbdc2	-1.974541
231	0xbe78dc74	-0.24302846
232	0xbee97296	-0.45595235
233	0xbe2198c3	-0.1578093
234	0x3cf36d50	0.02971521
235	0xbfb0771a	-1.3786347
236	0x3f259e65	0.64694816
237	0xbe4f1ef7	-0.20226656
238	0xbec462cd	-0.3835663
239	0xbe970408	-0.29495263
240	0xbeec2755	-0.46123758
241	0xbe04b9c8	-0.12961495
242	0x3dc35a5d	0.0953872
243	0xbf623ed4	-0.8837712
244	0xbd1d4cc2	-0.03840328
245	0x3fa4343d	1.2828442
246	0xbebd0e03	-0.36924753
247	0xbf1be276	-0.60892427
248	0xbf063e2b	-0.5243861
249	0x3f977011	1.1831075
250	0x3eb1494c	0.34626234
251	0xbe136513	-0.14394026
252	0x3f98cf4f	1.1938266
253	0xbbd97e02	-0.0066373358
254	0xbe750d94	-0.23930961
255	0x3f5a2d36	0.85225236

tabnet.encoder.initial_splitter.shared.glu_layers.1.bn.bn.weight f4 [32]
0	0x3f768b39	0.96306187
1	0x3f72b7ac	0.9481151
2	0x3f838e90	1.0277882
3	0x3f5fd979	0.8744121
4	0x3f88677f	1.0656585
5	0x3f86781f	1.0505408
6	0x3f8b2bb5	1.0872713
7	0x3f8ac63b	1.0841745
8	0x3f6b395e	0.9188441
9	0x3f85b950	1.0447178
10	0x3f7ef1cc	0.995877
11	0x3f8d6e56	1.1049297
12	0x3f7de5c9	0.9917875
13	0x3f8b6629	1.0890552
14	0x3f66c4ec	0.9014423
15	0x3f8fb37a	1.1226647
16	0x3f810884	1.0080724
17	0x3f75fc1f	0.9608783
18	0x3f651feb	0.8950183
19	0x3f4b87e0	0.79504204
20	0x3f8cb051	1.0991307
21	0x3f943b79	1.158065
22	0x3f98b76f	1.193098
23	0x3f6b85ad	0.9200085
24	0x3f53bbee	0.8270863
25	0x3f86814e	1.0508211
26	0x3f869174	1.0513139
27	0x3f749c8e	0.95551383
28	0x3f7a251e	0.97712886
29	0x3f8e8601	1.1134645
30	0x3f819cdc	1.0125995
31	0x3f5eafd0	0.8698702

tabnet.encoder.initial_splitter.shared.glu_layers.1.bn.bn.bias f4 [32]
0	0x3cdf27ad	0.027240599
1	0xbdedb7e5	-0.11607341
2	0xbd2ef2f8	-0.04271218
3	0x3d9ac3c5	0.07556871
4	0xbdee7c02	-0.11644746
5	0xbdff00f3	-0.12451353
6	0xbc199308	-0.009373434
7	0xbe5067e6	-0.20352134
8	0xbd49467b	-0.04913948
9	0xbdb3f59f	-0.08787083
10	0x3e1cbe55	0.15306981
11	0x3df4f05c	0.119599074
12	0x3e615259	0.2200407
13	0x3d683f71	0.056701127
14	0xbddd270e	-0.10798465
15	0x3dae2438	0.08503002
16	0xbda98ea2	-0.08279158
17	0xbe18c0d0	-0.14917302
18	0x3d13c7ae	0.0360791
19	0xbd468308	-0.048464805
20	0x3c71d769	0.01476083
21	0x3d6a18c0	0.05715251
22	0x3d33e6f2	0.04392142
23	0x3cd4bfa4	0.025970288
24	0x3e5ee4eb	0.21767013
25	0x3d21a9b5	0.039468486
26	0xbd170500	-0.036870003
27	0x3dca5743	0.09879925
28	0x3c5c442d	0.013443989
29	0xbd86d920	-0.06584382
30	0xbd34acb8	-0.04411003
31	0x3e23bca5	0.15989931

tabnet.encoder.initial_splitter.shared.glu_layers.1.bn.bn.running_mean f4 [32]
0	0xbe6b8587	-0.23000155
1	0xbd4cb464	-0.04997672
2	0x3e07b3ef	0.13252233
3	0x3ca61762	0.020274822
4	0x3e2da52f	0.16957544
5	0xbdb5385d	-0.08848641
6	0x3e187019	0.14886512
7	0xbca0fa8c	-0.01965072
8	0xbe154ed0	-0.14580846
9	0xbd5e9c3b	-0.05434821
10	0xbd4db134	-0.050217822
11	0x3c983e6a	0.018584449
12	0xbd3056e5	-0.04305162
13	0x3de21dcc	0.110408396
14	0xbe8cc0d1	-0.27490857
15	0x3e0112ac	0.12604779
16	0xbe0d8ece	-0.13824007
17	0x3d7f5cd2	0.06234438
18	0xbd45ffb0	-0.048339546
19	0xbcb5d51c	-0.022196345
20	0xbe860630	-0.26176596
21	0x3e7b8c15	0.24565156
22	0xbe836b1d	-0.25667658
23	0x3eccd5d2	0.40006882
24	0x3d5320e6	0.051545046
25	0x3d955f5d	0.0729358
26	0x3ce91b23	0.028455323
27	0xbd5af234	-0.05345364
28	0x3debe727	0.11518698
29	0x3e7a6117	0.244511
30	0x3e083708	0.13302243
31	0xbddfa597	-0.10920256

tabnet.encoder.initial_splitter.shared.glu_layers.1.bn.bn.running_var f4 [32]
0	0x4020bb24	2.5114222
1	0x3fb29fd9	1.3955032
2	0x40802ca8	4.005451
3	0x3fedf7a2	1.8591197
4	0x3f9952ed	1.1978432
5	0x4098450a	4.7584276
6	0x3ffb5875	1.963637
7	0x400881e4	2.132928
8	0x3f7d8c5b	0.9904229
9	0x3fa01fca	1.2509701
10	0x3ff8ae3f	1.9428176
11	0x3f9d74a7	1.2301224
12	0x3f473a87	0.7782368
13	0x3fc63fb3	1.548819
14	0x40c8196d	6.2531037
15	0x3fc757f4	1.5573716
16	0x3fbd4021	1.4785196
17	0x3ffb5f3e	1.9638441
18	0x3ffdc5a9	1.9825946
19	0x401f096d	2.4849503
20	0x3fa4d6be	1.2878034
21	0x404742ac	3.1134443
22	0x3f98b44c	1.1930022
23	0x412cd81d	10.802762
24	0x3fc91f6c	1.5712714
25	0x3ffeab30	1.9895992
26	0x40523582	3.2845159
27	0x3fe03680	1.7516632
28	0x3f75062c	0.9571254
29	0x40196712	2.396916
30	0x4003be60	2.0584946
31	0x4037ebb3	2.873761

tabnet.encoder.initial_splitter.specifics.glu_layers.0.fc.weight f4 [32, 16]
0	0xbf5a8b58	-0.8536887
1	0xbebc6f6e	-0.36803764
2	0xbece21c4	-0.40260136
3	0xbff29bc4	-1.8953786
4	0xbfa75fd9	-1.3076125
5	0x3f372daa	0.7155405
6	0xbec64e8c	-0.38731802
7	0x3f420cec	0.7580097
8	0xbe25e817	-0.16201816
9	0x3ff14ed7	1.8852185
10	0xbfdcbf8d	-1.7245957
11	0xbe05044a	-0.12989917
12	0xbf92572d	-1.1432854
13	0x3fb55908	1.4167795
14	0x3f892182	1.0713351
15	0xbf3d251f	-0.7388477
16	0x3f5b84f9	0.85749775
17	0xbf703aba	-0.9383961
18	0xbd7cab53	-0.061686825
19	0x3ecbab36	0.3977906
20	0xbf338ec6	-0.7013973
21	0x3f3b2a97	0.7311186
22	0x3f92da66	1.14729
23	0x3e8bffe7	0.27343675
24	0xbe712dae	-0.23552582
25	0x3f2f0b4b	0.68376607
26	0xbe541ca2	-0.20714048
27	0x3ee65ba0	0.4499178
28	0xbeed5b4a	-0.4635871
29	0x3bb441e5	0.0055010193
30	0x3f35eb97	0.71062607
31	0x3f01925c	0.5061395
32	0xbf695871	-0.91150576
33	0xbee392db	-0.4444798
34	0xbf3cf4fb	-0.7381131
35	0x3e9491cf	0.29017493
36	0xbfb646d7	-1.4240369
37	0x3fca441d	1.5802037
38	0xbf18d98a	-0.5970694
39	0xbf890e8f	-1.0707568
40	0x3e326208	0.17420208
41	0x3f485fe7	0.78271335
42	0xbee47f6e	-0.4462847
43	0xbf20f8e9	-0.62879807
44	0x3f25d062	0.6477109
45	0x3fbce6a3	1.4757885
46	0xbf8c3be8	-1.0955782
47	0x3f92737a	1.1441491
48	0xbefe1108	-0.4962237
49	0xbf999c2e	-1.2000787
50	0xbe1d180e	-0.15341207
51	0x3eaa7807	0.332947
52	0xbece57e4	-0.4030143
53	0xbf9813eb	-1.1881078
54	0x3deec26c	0.11658177
55	0xbebb43f6	-0.36575288
56	0xbe22cd91	-0.1589873
57	0x3d9b1457	0.07572239
58	0xbf72d1ca	-0.9485136
59	0x3ea9d278	0.33168387
60	0xbd8b9fb6	-0.06817572
61	0xbfc57988	-1.5427713
62	0xbfa5856f	-1.2931346
63	0xbd014d01	-0.031567577
64	0x3eaae87d	0.333805
65	0xbe234229	-0.15943207
66	0xbf8de7cb	-1.1086363
67	0xbfe61388	-1.797471
68	0x3ef395c5	0.47575203
69	0xbe2e71f9	-0.17035665
70	0x3e3a4622	0.18190816
71	0xbe18ab63	-0.14909129
72	0x3f0b429d	0.5439852
73	0xbe87a1ba	-0.26490575
74	0x3ef183f2	0.4717098
75	0x3eaa1fed	0.33227482
76	0xbe66e8e2	-0.22549775
77	0x3d9336ff	0.07188224
78	0xbf7d0813	-0.98840445
79	0x3ec26f0d	0.3797535
80	0xbe23d819	-0.16000403
81	0x3f262a94	0.6490872
82	0x3e01c16d	0.12671442
83	0x3f807831	1.003668
84	0x3f2a2b24	0.6647208
85	0xbe9c97c1	-0.3058453
86	0xbfbf6111	-1.4951497
87	0x3f71f5c6	0.94515646
88	0xbfc1d675	-1.5143572
89	0x3f60a72c	0.87755084
90	0xbfe08acc	-1.7542357
91	0x3e694518	0.22780263
92	0xbe50be3a	-0.20385066
93	0xbf81a850	-1.012949
94	0xbea1441e	-0.31497282
95	0x3e561024	0.20904595
96	0xbf6ed24e	-0.9328965
97	0xbfa4b293	-1.2866997
98	0xbfc4f40e	-1.538698
99	0xbf04b424	-0.5183737
100	0x3f7fa8c8	0.99866915
101	0x3f08e2d0	0.5347109
102	0xbea73f14	-0.32665312
103	0x3eb333a6	0.35000342
104	0xbfd5b613	-1.669619
105	0x3e945424	0.28970444
106	0xbf653ea5	-0.8954871
107	0xbf859dfb	-1.0438837
108	0x3e3ea901	0.18619157
109	0x3eafa63c	0.34306514
110	0x3ec9d9c6	0.3942396
111	0xbf5c6e3d	-0.8610571
112	0xbf88a9d5	-1.0676829
113	0x3d0a966a	0.033834852
114	0x3ea4645a	0.32107812
115	0x3e32137b	0.17390244
116	0xbf70fbb6	-0.9413408
117	0xbd92833b	-0.071539365
118	0x3f16c00a	0.5888678
119	0xbe9407c8	-0.28912187
120	0xbd271de8	-0.040800005
121	0x3e042236	0.12903675
122	0x3f4cd035	0.800052
123	0xbf39d4b1	-0.72590166
124	0x3ed5a757	0.41729233
125	0xbfce1e4c	-1.6102996
126	0xbea7c1ca	-0.32765037
127	0xbe99c4e4	-0.30033028
128	0x3f56e228	0.8393884
129	0x3ee6cb4c	0.45076978
130	0xbf3ecfb3	-0.74535674
131	0x3f3c0619	0.73446804
132	0xbf2befe0	-0.67162895
133	0xbfdc30ef	-1.7202433
134	0x3ee0ac14	0.43881285
135	0xbf51c630	-0.81943035
136	0xbf7d34ca	-0.98908675
137	0x3eba7251	0.36415341
138	0xbf617599	-0.88070065
139	0x3f0a370c	0.53990245
140	0xbfa299c0	-1.2703171
141	0xbf70dc69	-0.9408632
142	0xbdbcae53	-0.09212937
143	0xbfd55825	-1.6667525
144	0xbf012d2b	-0.50459546
145	0xc00518d6	-2.0796409
146	0xc0116016	-2.2714896
147	0xbf391c56	-0.7230886
148	0xbee28f20	-0.4424982
149	0x3eaa63f5	0.33279386
150	0xbebcc4f2	-0.36869007
151	0x3ca65f63	0.020309156
152	0xbf054db5	-0.52071697
153	0x3fa1af52	1.2631629
154	0x3cb75316	0.022378486
155	0x3f6c352d	0.9226864
156	0x3fb93584	1.4469457
157	0xbf846040	-1.0341873
158	0xbfdcee97	-1.7260312
159	0x3f3f5bbc	0.7474935
160	0x3e3671e0	0.17816877
161	0x3eb20e83	0.34776697
162	0xbe53e463	-0.20692591
163	0x3cfde566	0.030993175
164	0xbe63a5f1	-0.2223127
165	0xbf9fbc41	-1.2479326
166	0xbfa38cbf	-1.2777327
167	0xbd9995be	-0.07499264
168	0x3df04615	0.11732117
169	0x3f7aa215	0.9790357
170	0xbe3752f6	-0.17902741
171	0x3f476d52	0.77901185
172	0x3ec82367	0.3908951
173	0x3fa1b9d0	1.263483
174	0xbf4b5f20	-0.79442024
175	0x3e44164b	0.19149129
176	0xbeaea59f	-0.34110734
177	0x3e3f5288	0.18683827
178	0xbf323113	-0.6960613
179	0xbf851be1	-1.0399133
180	0x3ec97182	0.39344412
181	0x3e945008	0.2896731
182	0x3edab381	0.42715076
183	0xbd2b4aeb	-0.041819494
184	0xbf8f3e08	-1.1190805
185	0x3ed5182b	0.4162
186	0xbde39c2f	-0.11113774
187	0xbf8f5213	-1.1196922
188	0xbecb3add	-0.39693347
189	0x3fbb6ee6	1.4643219
190	0x3f93a24d	1.1533905
191	0x3f34b6fa	0.705917
192	0xbe14fecf	-0.14550327
193	0xbf53e8ae	-0.82776916
194	0x3d3e4787	0.046454933
195	0xbf01d7f3	-0.5072014
196	0xbe847ea6	-0.25877875
197	0x3ee53401	0.44766238
198	0x3f5dab28	0.8658929
199	0x3de511da	0.111850455
200	0xbc81e2ee	-0.015855279
201	0x3e9b8a5a	0.3037899
202	0x3e939736	0.28826302
203	0xbf1b0751	-0.6055804
204	0xbf115ccb	-0.56782216
205	0x3f38ef26	0.7223991
206	0xbf281c5b	-0.65668267
207	0xbeac345d	-0.336337
208	0x3ecf668d	0.40507928
209	0x3f81b29e	1.0132635
210	0xbf65a538	-0.8970523
211	0xbee6833a	-0.45021993
212	0x3ea6279e	0.324521
213	0xbf3aaae1	-0.7291699
214	0xbf0bc562	-0.5459806
215	0x3ec6da86	0.38838595
216	0x3f109daa	0.56490576
217	0xbe164029	-0.14672913
218	0xbf1b8b2a	-0.6075922
219	0x3f128933	0.572406
220	0xbe8a3184	-0.26990902
221	0xbf98d718	-1.1940641
222	0xbf608a9c	-0.877115
223	0xbea0b09d	-0.31384745
224	0xbf25681d	-0.6461199
225	0xbfc6e5a5	-1.5538832
226	0x3e9e3ea2	0.3090716
227	0xbee56beb	-0.44808897
228	0xbf649a47	-0.8929791
229	0x3f25a6f6	0.6470789
230	0x3f98bf5a	1.1933396
231	0x3f3bbffe	0.7333983
232	0xbe633dc8	-0.22191536
233	0x3fa10d2e	1.2582147
234	0xbe7af1a6	-0.24506244
235	0x3c1b9cd6	0.009497842
236	0xbcb569fa	-0.02214526
237	0xbf2a483c	-0.6651647
238	0xbce6acd7	-0.028158588
239	0xbe5287d3	-0.20559625
240	0xbe1036bc	-0.1408338
241	0x3f10b69c	0.5652864
242	0xbd61afe5	-0.055099387
243	0xbdb9c86c	-0.090714306
244	0x3dec430d	0.115362264
245	0xbf09a5a0	-0.5376835
246	0xbf663d87	-0.89937633
247	0x3eeced3f	0.46274754
248	0xbe5ac662	-0.2136474
249	0xbe48ea02	-0.19620517
250	0xbf32a282	-0.6977922
251	0x3f439eb1	0.7641402
252	0x3f98a0f2	1.1924117
253	0xbf4264a2	-0.75934803
254	0x3ec101ce	0.3769669
255	0x3f56479c	0.8370302

tabnet.encoder.initial_splitter.specifics.glu_layers.0.bn.bn.weight f4 [32]
0	0x3f86a52a	1.0519154
1	0x3f737193	0.95095176
2	0x3f5f28f6	0.87171876
3	0x3f8f3501	1.118805
4	0x3f825cd9	1.0184585
5	0x3f91499f	1.1350592
6	0x3f823c60	1.0174675
7	0x3f83510c	1.0259109
8	0x3f87ff54	1.0624795
9	0x3f732820	0.949831
10	0x3f56b713	0.838731
11	0x3f646fb5	0.8923295
12	0x3f638b09	0.88884026
13	0x3f763ed2	0.96189606
14	0x3f568e9b	0.8381135
15	0x3f7400f3	0.9531395
16	0x3f83c061	1.0293084
17	0x3f89afd5	1.0756785
18	0x3f796612	0.9742137
19	0x3f893ca9	1.0721637
20	0x3f7935c9	0.97347695
21	0x3f9d7172	1.2300246
22	0x3f8328e5	1.0246855
23	0x3f807641	1.0036088
24	0x3f7b98b7	0.982799
25	0x3f665c6a	0.8998476
26	0x3f6fd2b8	0.93680906
27	0x3f8f94c6	1.1217277
28	0x3f5b00f6	0.8554834
29	0x3f72ba14	0.9481518
30	0x3f5c6902	0.8609773
31	0x3f8264f3	1.0187057
