molecule-property-analysis/best_val.model (torch, 171664 bytes, 35 tensors)

atom_encoder.weight f4 [119, 64]
000000 8a cf 74 3f a9 ab f0 bf f5 18 32 3f 69 8b b7 bd
       0.9562918 -1.8802387 0.6956933 -0.08962137
000010 27 87 1b bd 45 2d 47 3e bf 4a 24 c0 0e 6f c6 bf
       -0.03797069 0.19450863 -2.5670621 -1.5502641
000020 cc 3f cf 3e 80 3a b2 3e 28 6f ba be 25 02 a7 3f
       0.4047836 0.34810257 -0.3641293 1.304753
000030 8f 4a 04 3f 4c 5b 6c bf 85 44 a1 3f bf 30 f8 3f
       0.5167627 -0.9232681 1.2599036 1.9389876
000040 64 d6 fb be 16 73 a8 3d 64 48 8a bf 6e f1 82 3d
       -0.49187005 0.08225076 -1.0803342 0.06393705
000050 ed e9 0b 3f 71 0b dc 3e fe 14 6d 3c 3d df 2a bf
       0.5465382 0.4297748 0.014470337 -0.66746885
000060 60 88 cd bf cf 00 ec 3e 0b bd 37 bf 32 be b6 3f
       -1.6057243 0.46094367 -0.7177283 1.4276793
000070 4b 15 10 bf 76 5f ae be 59 09 50 bf 80 9b 36 be
       -0.5628249 -0.34057206 -0.81264263 -0.17832756
000080 7b 59 c7 be 90 6b a0 3e 9d dd b3 3e bf b5 0b 3f
       -0.38935456 0.31332064 0.35130015 0.545742
000090 bb 88 b1 3f 04 02 53 3e d5 a0 0f 3f 97 dd 78 3f
       1.3869852 0.20606238 0.56104785 0.9721312
0000a0 c8 54 e7 3e 3e 22 87 3d 2c 86 88 3e d2 f0 0d 40
       0.4518187 0.06598328 0.26664865 2.2178235
0000b0 e5 06 ab bf 52 04 20 3f a2 27 0d 3c c7 8c 0b 40
       -1.3361479 0.6250659 0.008615406 2.1804674
0000c0 17 e9 1e 3e 46 df 89 3f 66 94 b5 bf 06 27 b6 bf
       0.15518604 1.0771263 -1.4185913 -1.4230659
0000d0 5f e3 88 3f 10 20 8f 3f 61 6b 0f 3d f7 a3 0f bf
       1.0694388 1.118166 0.035014514 -0.56109565
0000e0 23 47 07 3f e8 5b 50 3e 13 79 91 3e 3c 84 6f 3f
       0.5284292 0.2034756 0.28412685 0.9356115
0000f0 5c ac 05 bf 1f cb 34 3f 44 ba b4 3f ff c7 b9 bf
       -0.52216125 0.7062244 1.4119344 -1.4514159
000100 34 56 32 bd 01 d3 b3 be 0e 6d d4 3c ab bb 01 c0
       -0.04353924 -0.3512192 0.025930908 -2.0270793
000110 1e e1 96 3f 47 d0 b1 3e c5 bb ea 3e 72 d9 6b 3f
       1.178745 0.34729216 0.45846382 0.9212867
000120 89 60 07 bf 12 00 79 bf 80 c5 e6 bd 1d 7e 7f be
       -0.52881676 -0.9726573 -0.11268139 -0.24950452
000130 2b 28 a7 bf a8 75 3a 3d 9f fe 0b c0 13 71 bd 3e
       -1.3059133 0.045522362 -2.1874158 0.3700033
000140 b0 4e 0a 3f 05 b2 c8 3e b1 f0 4d bf 30 d1 a2 bf
       0.5402632 0.39198318 -0.8044539 -1.2720089
000150 80 79 86 3f 84 e7 c8 bf 5c da 20 bf 91 8b dd 3d
       1.0505829 -1.5695653 -0.6283319 0.10817636
000160 06 a9 14 40 80 f5 18 3e 0a dc 8c be b1 4d e1 3f
       2.3228164 0.14937401 -0.27511626 1.7601835
000170 35 81 68 bd 4b ea 39 bf 61 36 44 3f cc 94 ef 3e
       -0.056763846 -0.7262313 0.76645476 0.4679321
000180 fb 4b 95 3e c4 83 2d 3f d8 57 ef be 8f 45 d4 3f
       0.2915953 0.67779183 -0.46746707 1.6583728
000190 cb 18 ed 3f fb 34 3e bf bc 39 5a bf cc f1 d2 bf
       1.8523191 -0.7429959 -0.85244346 -1.648004
0001a0 e1 e1 db be f7 d2 30 bf 61 33 cd bc 10 bb 68 bf
       -0.4294577 -0.69071907 -0.025048913 -0.90910435
0001b0 0b b0 8d bf ed 44 43 3f 45 70 45 bf e2 9b 79 bf
       -1.1069349 0.7627705 -0.77124435 -0.97503483
0001c0 a5 e8 2b bf e0 73 9e 3e 6d 72 8a 3f fb a6 a9 bd
       -0.6715186 0.3094778 1.081617 -0.08283802
0001d0 3a 6f c0 bf 82 18 c1 3f d6 82 0e 3f 77 af 3f 3f
       -1.5033944 1.5085604 0.5566839 0.74877113
0001e0 48 d5 58 bd 99 a9 22 be 43 c7 85 3e 3b 98 14 be
       -0.052937776 -0.15885009 0.26128587 -0.14511196
0001f0 96 f7 be bf 50 35 0f 3f 59 ee 48 3f 18 fd 04 bf
       -1.4919307 0.55940723 0.7848869 -0.5194869
000200 91 a9 41 3f 60 ae 2c 3e 8b da 02 c0 8e 46 80 3f
       0.7564936 0.16863394 -2.0445888 1.0021532
000210 e0 27 b6 3f eb e9 26 3e 07 d6 11 c0 0e 65 b5 bf
       1.4230919 0.1630017 -2.2786882 -1.4171464
000220 9c fc 07 40 74 bc a9 bc c7 7f ac bf 3a 80 70 bf
       2.124793 -0.020719744 -1.3476495 -0.9394566
000230 fe d3 14 3f b6 4d 10 c0 69 09 8a 3f 74 d4 5f 3e
       0.58135974 -2.254743 1.0784122 0.21858388
000240 96 c4 70 3f be 86 8c bf b1 34 7a be 29 16 1f bd
       0.94049966 -1.097862 -0.24434163 -0.038839493
000250 21 af 3b 3f 6a 55 a7 be c5 9a 2c bf 20 ea 86 bf
       0.733141 -0.32682353 -0.6742366 -1.0540199
000260 a9 58 ac 3d 06 42 2e 3f c0 d4 ed 3d 9f 64 25 bd
       0.08415348 0.68069494 0.116128445 -0.040379163
000270 22 0f a9 bf 41 22 39 be 4f 76 c4 bf cb b7 da be
       -1.3207743 -0.18079473 -1.5348605 -0.42718348
000280 37 23 a9 be 4b 6d 7f 3f 25 d4 42 3d 67 a0 82 bf
       -0.3303468 0.9977614 0.047565598 -1.0205201
000290 d4 e8 3b c0 16 06 ec 3e 27 72 27 3f 40 ae 5f 3f
       -2.9360857 0.46098393 0.6540856 0.8737526
0002a0 af 04 a9 3f a6 b2 d2 bf bf 47 d1 3f 5c 61 92 be
       1.3204554 -1.6460769 1.635002 -0.28589904
0002b0 17 df c1 3e c4 50 ee 3e 13 ef 07 3f af f5 9e be
       0.37865517 0.46545994 0.53099173 -0.31046817
0002c0 f8 68 87 3f b2 ee 0a 3b 00 ae 39 3f 1f 8b bb 3f
       1.0578909 0.0021199402 0.7253113 1.4651831
0002d0 37 68 da bf 8a ca 2e be 72 3e 42 3f eb 28 b4 3b
       -1.7063054 -0.1706945 0.75876534 0.005498042
0002e0 b7 41 e8 3f 28 93 55 bf 3b 39 c0 bf 47 e1 24 3f
       1.8145055 -0.8342767 -1.5017465 0.64406246
0002f0 d2 de c4 bd 9a b1 0c 3f 40 44 1d bf ef f7 6a 3e
       -0.09612812 0.549585 -0.61432266 0.22946142
000300 b7 e7 2b c0 0c e3 16 bf f7 1d a1 3d f8 34 dd 3f
       -2.6860178 -0.58940196 0.078670435 1.728179
000310 dc db fd be d9 69 0d 3f 7f ee af 3f 09 e6 3a 3d
       -0.49581802 0.55239636 1.3744658 0.045629535
000320 59 cc f0 3d 3a f0 39 be 7e aa 98 3f 6a fd a6 3f
       0.11757726 -0.18158045 1.192703 1.3046086
000330 46 88 45 3f 2b 69 69 bf 7b ef 3c bf 43 f6 96 3f
       0.7716106 -0.911761 -0.7380292 1.1793903
000340 5b b0 1e 3f ca d6 aa be 90 75 04 3f c4 3e e7 bf
       0.6198785 -0.33366996 0.51741886 -1.806603
000350 37 4a 5e 3f 69 1d 7d 3f af bc 0e bd 7c 5f 1e bf
       0.8683199 0.98873 -0.03484791 -0.6186445
000360 72 eb 99 3e 26 ef 06 3f 35 8f 1b bf 27 ce 43 bc
       0.30062443 0.5270866 -0.6076539 -0.011951006
000370 45 19 7f 3e e1 f4 03 c0 c0 04 d2 3e 44 92 a5 3f
       0.24911983 -2.0618212 0.4101925 1.2935262
000380 df 77 24 3e 8e 26 10 bf 4a a7 b2 3f 96 0e 49 40
       0.16061352 -0.5630883 1.3957303 3.1415153
000390 b8 7c 8f 3e c3 ae c7 3e a6 2b 2f 3f fc dd 8a be
       0.2802484 0.3900052 0.6842598 -0.27122486
0003a0 8b 40 b9 be 01 e9 e8 3e 33 bf 1c 40 0a 41 6f 3e
       -0.36182055 0.45490268 2.4491699 0.23364654
0003b0 8a ae 6a bf 3b ee 19 bf bc 55 72 bf 78 a2 e2 3e
       -0.91672575 -0.60129136 -0.9466207 0.4426458
0003c0 17 36 3b bf 49 68 c3 3d d2 71 0a bf 1f be 65 3f
       -0.7312941 0.09541375 -0.54079926 0.89743227
0003d0 9b 16 b8 3e b2 fb f4 3f f2 3d c4 3f 86 48 3f 3e
       0.35954747 1.9139311 1.5331404 0.18680009
0003e0 3d 9d 80 be 53 d8 4b 3f 92 5e d3 3f 1d 90 1b bf
       -0.25119963 0.7962696 1.6513236 -0.60766774
0003f0 1a 82 55 bf 2f a0 b1 bf b2 51 c4 bc 85 af a7 3f
       -0.83401644 -1.3877009 -0.023964737 1.3100439

bond_encoder.weight f4 [22, 8]
000000 90 0e 90 bd 48 ff e6 bb aa 05 22 bf 65 5e a6 3f
       -0.070340276 -0.007049475 -0.6328989 1.2997557
000010 33 72 0d 3f c5 1f 75 3f 83 9d 5e bf ac 10 cf 3f
       0.5525238 0.957516 -0.86959094 1.6176963
000020 5b c1 95 3f 36 22 4e 3f c1 f5 0f 40 0b b5 82 bf
       1.1699632 0.8052095 2.2493746 -1.02115
000030 e7 da 06 3f 65 64 54 3f d9 8c 6c 3f bc d1 19 bf
       0.5267777 0.8296569 0.92402416 -0.60085654
000040 6f c2 83 be d6 c0 a1 bf 2b a8 e5 be 43 b4 15 bf
       -0.2573428 -1.2636974 -0.44854864 -0.5847818
000050 8a ab cc be 1d 48 08 3d c6 5c c1 3e f3 7f f4 bf
       -0.39974624 0.033271898 0.37766093 -1.9101547
000060 5b 6f 5d 3e bf 33 66 3f f2 32 b1 3f 88 bf 1d c0
       0.2162451 0.8992271 1.3843672 -2.4648151
000070 74 c0 35 3f 5c 96 ef bf 3f 77 43 3f 59 23 5b bf
       0.70996785 -1.8717761 0.7635383 -0.8560081
000080 0c 80 63 bf c7 e6 15 3f e2 45 7c 3e 94 d2 06 bf
       -0.8886726 0.58555263 0.24636033 -0.52665067
000090 fb ed 2b bf a3 2c 06 bf ff 61 c9 3f 19 31 13 3f
       -0.67160004 -0.5241186 1.5733031 0.5749679
0000a0 80 67 87 3f a7 76 92 bf f5 7e 91 be a1 51 53 3e
       1.0578461 -1.144246 -0.28417173 0.20636608
0000b0 ef cd c4 bc d4 21 50 3f 66 07 3e bf f6 bb 36 3f
       -0.024023978 0.8130162 -0.7423004 0.71380556
0000c0 34 5f 82 bc 1e e5 ce 3e 1a 64 31 3f 8f fd 72 3f
       -0.015914537 0.40409178 0.6929337 0.9491815
0000d0 90 65 89 3d d3 07 a8 be db d8 41 bd 3e 15 5a 3f
       0.06708825 -0.3281847 -0.04732595 0.85188663
0000e0 ef e8 cb 3d 16 0b 2b bf 89 70 16 3f 97 de 81 bf
       0.09956538 -0.6681379 0.58765465 -1.0146054
0000f0 a9 8f 91 3f a9 30 c5 3f d8 da 6f 3f 27 48 0a bc
       1.1371967 1.5405475 0.93693304 -0.008440054
000100 7e f3 81 bf ed 37 b9 bf 7d b5 47 bf 8a 77 19 40
       -1.0152433 -1.4470192 -0.78011304 2.397921
000110 1c 85 3e bf 88 63 30 3f 46 ef 0b bf a3 97 c1 bd
       -0.7442186 0.6890187 -0.5466198 -0.094527505
000120 8b 28 86 bf c5 9f 98 3e 67 29 4d bf 3d 92 8c bf
       -1.0481123 0.29809394 -0.801413 -1.0982128
000130 04 19 81 3f 50 a1 47 bf 7a 15 0e 3d 10 c6 09 be
       1.0085759 -0.7798052 0.03468845 -0.13454461
000140 76 f8 7d 3e 76 98 4c 3f 9b 0b 50 bd df 0f 6a be
       0.24801812 0.79920137 -0.050792318 -0.22857617
000150 44 ee ef be 07 20 ff 3e 51 49 58 3e d5 b6 b1 be
       -0.4686147 0.49829122 0.21121718 -0.34709802
000160 96 a5 fc be 36 d4 da 3e d8 43 fe 3d 07 8d 98 be
       -0.49345082 0.4274003 0.12415284 -0.29795095
000170 d8 57 78 3e e4 54 a1 3f 0f b6 80 3f 18 5d a5 bf
       0.2425226 1.2604032 1.005556 -1.2919035
000180 64 22 80 3d 4e ed 9c 3d e1 51 d1 bf 87 bb e1 bd
       0.062565595 0.0766245 -1.6353112 -0.11022096
000190 63 be 0e bf 71 3b 3e be 8f a8 95 3f 19 79 06 40
       -0.5575926 -0.18577363 1.1692065 2.1011412
0001a0 e9 91 9a bf b2 16 71 3e 7e c1 f9 3e ec 45 84 3f
       -1.2075778 0.23543814 0.48780435 1.0333838
0001b0 c9 8f 1c bf d6 16 c4 3e 5e 31 9f be f9 08 a4 be
       -0.611569 0.38298672 -0.31092352 -0.32038096
0001c0 79 14 19 3f 2a fd f7 3e 62 49 a9 3f 87 25 89 3f
       0.59796864 0.48435336 1.322552 1.0714577
0001d0 ff f2 18 3f 80 f3 de 3f 88 e3 d6 3d 2f 31 bd 3b
       0.5974578 1.741806 0.10492617 0.0057736854
0001e0 83 1e 19 c0 3f 1e 16 bf 37 74 26 c0 e7 9a 81 bf
       -2.3924873 -0.586399 -2.6008432 -1.0125397
0001f0 91 08 0c 3f 17 f0 c6 3f e9 e6 63 3d 86 32 5d 3e
       0.5470057 1.554202 0.055640135 0.21601304
000200 5f fe 94 bf 1d 23 39 3e 6f ed 01 3f dc 37 f8 3e
       -1.1640128 0.18079801 0.5075292 0.48480117
000210 8e 05 fc bf ad 33 91 be db 5a 3b 3f af b8 48 3e
       -1.9689195 -0.28359738 0.7318551 0.19601701
000220 21 3e 08 c0 5d 2c d0 3f e8 2b c3 bb 78 cf ae bf
       -2.128792 1.6263539 -0.005956162 -1.3657064
000230 e1 d2 5c 3f 65 d1 89 bf 44 e1 5e bf 4e 14 54 be
       0.86259276 -1.0767027 -0.8706248 -0.2071087
000240 1d 49 86 3f 52 0a 53 bf 59 99 91 bf 1b f4 c3 be
       1.0491062 -0.8243762 -1.1374923 -0.38272175
000250 c1 6b 07 bf 2f a7 2d 3f 8e 19 01 c0 f0 f4 3a 3f
       -0.52898794 0.67833227 -2.0171847 0.73029995
000260 15 59 e9 3f 15 3a 3b bf 97 7e ac 3f 1c 72 05 bf
       1.8230311 -0.731355 1.3476132 -0.5212724
000270 4e 89 9f bf b4 70 73 3f 9c 2c 42 3f 68 c6 44 3f
       -1.2463777 0.95093846 0.7584932 0.76865244
000280 e1 a5 89 be 0c 97 ef 3e f8 06 74 bf 3f e7 53 bf
       -0.26884368 0.46794927 -0.95323133 -0.8277473
000290 fd f0 34 bf ed 81 85 3e c7 79 16 3f 29 36 c5 be
       -0.7068022 0.26075688 0.5877957 -0.38517883
0002a0 b7 61 9b bf db 88 0e c0 07 fd 70 3f 47 a9 20 3e
       -1.2139195 -2.227103 0.9413609 0.15689574
0002b0 a9 97 f2 be 4f 9f 93 bf f8 2b c6 3d 8a 80 8d 3e
       -0.47381333 -1.1532992 0.09676355 0.2763713

gnn.convs.0.att f4 [1, 1, 67]
000000 d0 6b 24 be 1d 33 0c 3d e4 aa a1 bd 66 3b 94 3d
       -0.16056752 0.034228433 -0.07893923 0.07237892
000010 e0 75 bb 3d b8 bf 5e 3e 94 ce 29 bd 69 22 6d be
       0.09153342 0.21752822 -0.041456774 -0.23157658
000020 6f 1a 69 3e a9 f8 4f 3d fa 5d 17 3e 7b 0b 06 3e
       0.2276399 0.05077425 0.14781943 0.13090317
000030 1f 10 80 be 53 8b bc 3d 49 4e 39 be 3e 94 a3 bd
       -0.250123 0.092062615 -0.1809627 -0.07987259
000040 31 f1 f3 bd e2 4d 1e 3e b2 ee 83 3e f5 99 8d 3e
       -0.11911238 0.15459397 0.25768048 0.27656522
000050 ec 01 c2 bd 72 9f 72 be a2 cd 4e 3e ac c0 79 3e
       -0.09473023 -0.23693636 0.2019563 0.24389905
000060 a4 48 95 3e e1 29 cf 3d d2 61 98 bd 9c 89 e6 3d
       0.29156983 0.1011541 -0.07440533 0.11256716
000070 f2 08 90 3e be 49 62 3e 94 96 5a be 97 00 45 bd
       0.28131825 0.22098443 -0.21346503 -0.048096266
000080 13 1b f8 3d 95 35 89 3c a3 de 41 3e cc 4c 07 bd
       0.12114539 0.016749183 0.18932585 -0.033032224
000090 9c 79 94 be 42 33 52 3e 9d 14 3c be 7e 2d b6 3e
       -0.2899903 0.20527366 -0.18367238 0.35581583
0000a0 c7 81 31 be 03 cb 5d be ec 12 c8 bd 79 25 5d bd
       -0.17334662 -0.21659474 -0.09769234 -0.053990815
0000b0 1c ac 1b 3e f2 dd 81 be 27 7d d1 3d 2e ba 4d be
       0.15202373 -0.25364643 0.10228949 -0.20090553
0000c0 15 1d 63 be e8 a1 cb 3d f0 8e 32 be 34 d6 b2 3b
       -0.22179063 0.099429905 -0.17437339 0.005457664
0000d0 6a b9 13 be 80 25 27 be b6 4c fa bd 2a 28 a3 be
       -0.14426199 -0.16322899 -0.12221663 -0.3186658
0000e0 78 f2 0b be 79 7e c0 bd 44 db 83 3d 00 44 83 be
       -0.13666713 -0.09399123 0.06438306 -0.25637817
0000f0 9d 45 0c 3e 1f 25 e7 3d 62 8d a4 3e c2 5d 77 3d
       0.1369843 0.11286377 0.32139117 0.06039215
000100 0c 98 d2 bc 0a de 8d be f2 ee 36 be
       -0.025707267 -0.27708465 -0.17864588

gnn.convs.0.bias f4 [67]
000000 36 f2 14 3c 24 d0 0a 3d af f4 dd 3c 09 ac 30 bc
       0.009090951 0.033889905 0.027094213 -0.010783204
000010 b8 7b b5 bb 1f 8b 5d 3c 50 43 40 3b 1a 50 94 bc
       -0.00553843 0.013521939 0.0029336996 -0.018104602
000020 3d 07 c5 b9 58 f6 d9 3b cf 56 9a 3c 16 36 a4 3c
       -0.0003758016 0.006651681 0.018840222 0.020045321
000030 a7 c0 3d bc f2 4f 55 bc 5c c6 86 3b b1 b9 23 bc
       -0.011581576 -0.013019549 0.0041130017 -0.009993003
000040 ce 87 e8 bb a2 cd 28 bc cf 11 b3 bb 9d b6 d0 bc
       -0.0070962673 -0.010302933 -0.0054647694 -0.025477702
000050 a5 09 73 bb fd ad 03 3b b4 a0 3b 3c 22 b4 7f 3b
       -0.0037084606 0.0020092719 0.011451889 0.003901728
000060 05 3e 93 3c a2 3f 42 3c f3 33 81 3b a1 1f 27 bc
       0.01797391 0.011855992 0.0039429604 -0.010200412
000070 62 d5 ea b9 40 da e6 3a d8 3a f6 3b 03 2c ad bc
       -0.0004479094 0.0017612651 0.007514339 -0.02113915
000080 b0 d7 c8 3c 52 d9 c2 3b a5 d9 7a 3c 53 71 05 bb
       0.02451691 0.0059463168 0.01531068 -0.0020361736
000090 7e 3f e2 bc b5 e4 28 bd 5e 16 6f 3c 33 d4 90 3c
       -0.027618166 -0.041233737 0.014592735 0.01767931
0000a0 44 87 9a 3c 87 a0 11 3b e4 95 d1 bb 5e 11 7d bc
       0.018863328 0.0022220926 -0.006396042 -0.015446035
0000b0 8c ea dc 3c ec 27 aa bb 5c a8 8e bc c6 17 0d 3c
       0.02696731 -0.0051927473 -0.017414264 0.008611625
0000c0 6c c2 e1 3b 16 ee ab 3b cc f8 94 bc c9 6c a7 bb
       0.006889632 0.005246888 -0.018185042 -0.0051094037
0000d0 9d 30 96 3c 74 1a 3f 3c b0 04 e8 bc a2 12 3c 3b
       0.018333727 0.011664022 -0.028322548 0.002869763
0000e0 ce 58 7c bc 6e 24 ce bc 73 be ff bb fb 6d a2 bb
       -0.015402032 -0.025163855 -0.0078046857 -0.0049569583
0000f0 4d dd 7d bb 48 19 10 bc e4 8d 83 bc 93 5a 62 3b
       -0.0038736642 -0.00879509 -0.01605887 0.003453885
000100 b0 a6 c1 bc 0f 8c 63 3c cd 0d bf 3a
       -0.023639053 0.013888373 0.0014576257

gnn.convs.0.lin_l.weight f4 [67, 67]
000000 ad 69 59 3e 32 09 c1 3d 8b fb fd bd ea bc 22 3e
       0.21231718 0.09425582 -0.12401494 0.15892377
000010 4c 38 da 3c 61 6e ea 3d d6 20 a7 bd 68 99 31 be
       0.026638173 0.11446834 -0.0816056 -0.17343676
000020 dd d5 11 be d3 bd e1 bd 0d 5a 51 3e 17 a2 38 be
       -0.14241739 -0.11022534 0.20444508 -0.18030582
000030 ad a2 94 3c 7c 8e 11 3e b1 11 d6 bd 51 ea d7 3d
       0.018143976 0.1421451 -0.10452593 0.10542739
000040 86 b7 24 3e d3 0f fd 3d 71 05 24 be 8a c9 bc 3d
       0.16085634 0.12356534 -0.160177 0.09218128
000050 02 27 d7 bd f9 5d c1 3d f7 73 2c 3e 07 ea 9b 3d
       -0.10505487 0.09441752 0.16841112 0.076129965
000060 67 60 53 3d 6f 8b 27 3e 6b 93 d3 3c c7 92 ab 3d
       0.05160561 0.16361783 0.02582713 0.08377605
000070 37 b3 aa 3c 9c 82 ac bc 0c 09 f2 3d c9 c8 31 3d
       0.02083741 -0.021058373 0.11818132 0.043404374
000080 7f 35 cb 3d b5 ca 98 bc 19 83 d7 bd 46 a8 03 bd
       0.09922313 -0.018651346 -0.10523052 -0.0321429
000090 a6 5c 3c be 4a 5a e1 3d c4 82 0d 3e 33 8c 56 3e
       -0.18394718 0.110035494 0.13819414 0.2095192
0000a0 ed 43 fe 3d cb 11 ef bd 84 e2 06 be 49 30 cb bc
       0.124152996 -0.116733156 -0.13172346 -0.024803298
0000b0 b8 1d a6 3d 03 ed ff bb 60 4d 22 bd d6 91 69 bc
       0.08111137 -0.0078102364 -0.03962457 -0.014255961
0000c0 68 f0 7a 3d 73 47 23 be c1 81 1a 3e d8 ee 47 bc
       0.061264426 -0.15945224 0.1508856 -0.012202941
0000d0 a8 2e 28 3d 72 ee 1a 3d c7 36 4a 3e 8a 6d 2c 3d
       0.04106012 0.037825055 0.19747458 0.042096652
0000e0 e4 bb d4 bb 21 11 35 3e ab 48 f7 bd 79 e7 22 be
       -0.006492125 0.17682315 -0.12074407 -0.15908612
0000f0 20 df 0d be ea 00 0c 3e 82 e3 17 be 88 99 14 be
       -0.13854647 0.13672224 -0.14832881 -0.14511693
000100 7e 57 1c 3e e0 bd 96 be 08 c0 ad 3e 26 d9 47 be
       0.1526775 -0.29441738 0.3393557 -0.1951643
000110 1d 58 06 be a9 45 08 3e 34 a4 17 3d ad c3 f7 3d
       -0.1311955 0.13307823 0.03702183 0.12097869
000120 11 9c 5c bd 1b ec 59 3b f1 e7 19 be 20 d1 5c 3e
       -0.053859774 0.0033252302 -0.15029885 0.2156415
000130 53 95 80 bd 6f 04 99 bd e4 42 49 be 91 12 46 3e
       -0.06278481 -0.07471549 -0.19654423 0.1934302
000140 5a 8c 8d 3d dd 9a 0f 3e 3f 7e 34 be 38 c1 0d 3e
       0.069115356 0.1402392 -0.17626284 0.13843238
000150 57 5c c7 b9 73 4b 89 bd 5d 30 3b 3c 44 0f a7 3d
       -0.00038025036 -0.06703844 0.011425105 0.081572086
000160 ec a0 a2 3c 3f f3 c0 bb cd a0 1d be 43 2e 6c 3d
       0.019852124 -0.005888372 -0.15393372 0.057661306
000170 72 76 09 be d6 30 0a be 2f 34 f6 bd f9 38 0d bd
       -0.1342409 -0.13495192 -0.12021672 -0.03447816
000180 a5 f3 8d bd 6c c3 f2 bd c2 1d 10 bd ce 4b 08 3e
       -0.06931237 -0.1185368 -0.03518463 0.13310167
000190 56 da 0b be 0f 26 cc 3d 79 62 1c 3e 49 08 4b be
       -0.13657507 0.099681966 0.1527194 -0.1982738
0001a0 a2 ad 2d be 10 a1 0d be c5 63 cd 3d d6 34 0c 3d
       -0.16960767 -0.13830972 0.10028795 0.034230076
0001b0 0d e2 ac 3d 56 a4 91 3d 8e d5 07 3e 00 52 63 3d
       0.08441553 0.07111423 0.13265058 0.055498123
0001c0 8b 27 6b 3c ef f3 af bc 90 70 3a 3b 3e ad 90 3d
       0.0143526895 -0.021478621 0.002844844 0.07064293
0001d0 67 f2 bf 3d e6 8a 58 3e c6 b7 20 be 42 b8 93 3d
       0.093724065 0.21146736 -0.15695104 0.07212879
0001e0 64 d7 a5 3d 0b 38 d9 bd 82 db d1 bc 53 0c 07 be
       0.08097723 -0.106063925 -0.025617365 -0.13188295
0001f0 14 d2 ec bb d6 fa 01 bb 2d 5d dd 39 0a 95 17 3e
       -0.0072271917 -0.0019833348 0.00042221826 0.14802948
000200 8b 7c 99 bd bd d6 35 3e 51 63 05 3e b0 21 48 3e
       -0.07494458 0.17757697 0.13026167 0.19544101
000210 41 26 45 be 7f 9f 98 be 57 2f 37 be a6 25 23 be
       -0.19252874 -0.29809186 -0.17889152 -0.1593233
000220 e3 3b 4c 3e e2 88 25 3d d4 22 b6 bc 61 7a 39 3e
       0.1994472 0.040413745 -0.022233404 0.1811309
000230 85 30 33 be 33 ff 09 be 55 96 8d bd eb a5 b6 bd
       -0.17498977 -0.13476257 -0.06913439 -0.08918365
000240 77 af 2d 3b b7 32 46 bc 0e ae 69 3d 0e 2f 11 3e
       0.002650229 -0.012097052 0.057050757 0.14178106
000250 06 fe 35 3e f6 c8 b6 bd bd 15 95 bd d4 a1 87 bd
       0.17772684 -0.08925049 -0.07279537 -0.06622663
000260 e5 ba 08 3e 53 18 18 be 3a 24 f2 3d 8d e2 da bd
       0.13352545 -0.14853029 0.11823316 -0.106877424
000270 5e fd d0 ba 2f ee 9e 3d e7 62 13 3e 1f bf 67 3e
       -0.001594465 0.07760274 0.14393197 0.226315
000280 bf 02 fb 3d 52 cd ff 3d 5d e5 0b 3e 3d 79 96 bd
       0.12256383 0.124903336 0.13661714 -0.07347343
000290 ec f2 a8 bc 75 d1 19 be 11 8b ed bd 49 4f 8c be
       -0.020623647 -0.15021308 -0.115987904 -0.2740424
0002a0 3f 96 de bc 9b 1b cb 3d 22 59 fb bd ca c3 79 bd
       -0.027171252 0.09917375 -0.1227286 -0.060977735
0002b0 2a ac 2e be 5a a0 ac bd b0 f5 37 3e e1 b8 0e be
       -0.17057863 -0.08429022 0.17964816 -0.13937713
0002c0 51 60 ab 3d 9b 03 d5 bd ab 21 37 3e b2 1d c0 bd
       0.0836798 -0.10401078 0.17883937 -0.09380664
0002d0 70 b1 7d bd da 45 5c 3e 10 c0 4e bc f9 fd 7a bd
       -0.061936796 0.21511021 -0.012619033 -0.061277363
0002e0 ea 0d 11 3e fc 8d a1 3d d1 a3 dc 3d 78 69 2a be
       0.14165464 0.078884095 0.10773433 -0.16641796
0002f0 58 49 2a be 3f 58 5f be 44 17 56 be 41 f3 19 3e
       -0.16629541 -0.21811007 -0.20907313 0.150342
000300 aa 65 4f bd 98 ab 84 3a 0e 01 47 3e a1 e9 d2 bd
       -0.050634064 0.001012194 0.19433996 -0.102984674
000310 18 a7 26 3e 57 d4 cc bc 84 53 2e be 96 db c8 3d
       0.16274679 -0.025003595 -0.17024046 0.09807508
000320 3a b5 38 be 45 de 17 3d 01 a8 3c be 6e ba 34 3e
       -0.18037882 0.037077207 -0.18423463 0.17649242
000330 f0 0b 4c be d2 b8 ad 3d 6e 05 35 be 11 7d 47 3e
       -0.19926429 0.08482517 -0.17677853 0.19481303
000340 61 69 22 bd b1 79 1b 3e 23 bc 49 be 71 de 09 3e
       -0.03965128 0.1518314 -0.19700675 0.13463761
000350 f5 ce f4 3d cd 6d 09 3a cc 54 13 3e 1e f5 4e bd
       0.119535364 0.0005242497 0.14387816 -0.05052673
000360 9c 8f 2f 3d ca e6 40 be aa fd b1 bd 32 f4 0d 3e
       0.042861566 -0.18838039 -0.08690961 0.13862684
000370 47 cd df b9 a9 90 ac 3c 0e 7c 86 bc 83 39 9d 3d
       -0.00042686818 0.021065073 -0.016416576 0.07676985
000380 51 34 9f bd 88 8b 15 bd 0d af 0b be 2d 2f 22 be
       -0.077736504 -0.03651002 -0.13640995 -0.15838309
000390 cb 78 80 bb 3c 01 4f 3d 54 92 98 bd 86 2a 0e 3e
       -0.0039206496 0.050538287 -0.07449785 0.13883409
0003a0 ba 8c fd 3d 86 cb 4e 3e 84 72 c5 bd 1d 89 dc bd
       0.12380357 0.20194826 -0.09640983 -0.1076834
0003b0 f2 c1 2e be da e3 24 3e 49 0a 4c 3c 7a 01 a9 bd
       -0.17066172 0.16102543 0.012453624 -0.08252235
0003c0 6b fd 84 3d 12 32 18 bd ad 08 23 bd 19 73 1b 3d
       0.06493648 -0.037157126 -0.039803196 0.037951563
0003d0 e8 ef 77 3c 1d f9 ab bc 20 90 84 3d 6f bc ec 3d
       0.015132882 -0.02099281 0.06472802 0.11559378
0003e0 0a 1c 09 3e 75 be 2e be 76 29 3c be a1 b3 0a be
       0.13389602 -0.17064841 -0.18375191 -0.13545085
0003f0 6e b6 2a 3e b1 8e 1b 3e e7 90 31 3e 2f 37 f3 bd
       0.16671154 0.15191151 0.17340432 -0.1187576

gnn.convs.0.lin_l.bias f4 [67]
000000 be 91 9d bd e1 eb c3 3d 07 87 01 3e 53 97 c2 bb
       -0.07693814 0.09566475 0.12649165 -0.0059384494
000010 23 dd c3 bc 62 ca 66 3d 0b 18 cc bc 18 29 c9 bd
       -0.023909157 0.05634535 -0.024913808 -0.09822291
000020 b6 74 ee 3c b8 f3 48 bd 82 78 84 3c 3f 1c 19 bd
       0.029108386 -0.049060553 0.016170744 -0.037380453
000030 fd b8 05 bd 11 e3 a8 bd 78 7a 8d bc 22 48 83 3d
       -0.03264712 -0.082464345 -0.017270312 0.064102426
000040 ce 8e 3c bd 55 2c a6 3d 77 e9 d4 bd 10 64 aa 3c
       -0.046034627 0.081139244 -0.103960924 0.020799667
000050 1c 30 b8 bc f8 78 ca 3d 91 6f e6 3c 14 6f ad bd
       -0.022483878 0.09886354 0.02812937 -0.08468452
000060 ef 83 ce bc 67 ab e5 3d bd f0 8f bd 85 17 91 bd
       -0.025209395 0.11214333 -0.07028339 -0.07084564
000070 93 05 d0 bc d0 db d7 3d e8 54 b2 bd d3 58 c5 3d
       -0.025393283 0.10539973 -0.08707601 0.096360825
000080 2a 0a 13 3d 4f bf 92 bd 92 24 9f bd 34 0e b6 bd
       0.035898365 -0.071653955 -0.07770647 -0.08889428
000090 20 9c 93 3d 29 bf 0c be 05 62 01 3e 35 8d bb 3d
       0.07207513 -0.13744797 0.12635048 0.091577925
0000a0 87 39 58 bd ef 12 be 3d 58 3a 0d 3d 17 eb bd bb
       -0.052789237 0.09280955 0.03447947 -0.005795847
0000b0 8d 22 59 bc 74 35 e0 3d 8a dd 98 3d ed 51 d5 3d
       -0.013252866 0.109476954 0.0746413 0.10416017
0000c0 3f 03 1c ba a5 d8 92 bd 91 d8 bd 3d ff d2 91 bb
       -0.00059514114 -0.07170228 0.092698224 -0.0044502015
0000d0 72 fa 28 bd f1 6a aa bc de ac 08 bc 0c 0c 33 bd
       -0.04125447 -0.020802947 -0.008341996 -0.04371266
0000e0 01 36 e4 bc 72 2a f1 bd 15 2c d6 3d 04 71 d4 3d
       -0.027857782 -0.11775674 0.10457627 0.103731185
0000f0 cb 2b 54 bd 16 da 32 bc 6e f7 cf bd 96 83 9e 3c
       -0.051799577 -0.010916254 -0.10154615 0.019349854
000100 f4 b2 0d be 60 e6 28 bd 81 e5 ab 3d
       -0.13837796 -0.041235328 0.08393384

gnn.convs.0.lin_r.weight f4 [67, 67]
000000 04 10 75 3e 71 3b e4 bd c9 5a 01 3e 18 84 c6 bd
       0.2393189 -0.1114415 0.12632288 -0.09693164
000010 bb fc 1b be 9e 78 8b be a2 0b a6 3d 80 9c 29 3e
       -0.15233128 -0.2724046 0.081076875 0.16563606
000020 e5 8a 3e 3e 22 09 75 3e 77 22 15 3e 76 dd 88 bd
       0.18607672 0.23929265 0.14563929 -0.06682865
000030 fe f4 cc 3d f9 0c 3d 3d 5a c3 21 be f2 5e 1d 3e
       0.10007666 0.04615495 -0.15797177 0.1536825
000040 3e 30 4c bd 3e 8e 06 3d db d2 32 be ae 43 4f be
       -0.049850695 0.032850496 -0.17463247 -0.20240662
000050 70 42 33 be 95 f2 a4 bc fe 65 43 be fc 7f 01 be
       -0.17505813 -0.020135203 -0.19081876 -0.12646478
000060 a6 63 56 be 5e 01 19 be 76 b9 06 3e 23 3a 51 3d
       -0.2093645 -0.14941928 0.13156685 0.051080834
000070 32 60 8c bd 22 4c 1d be 33 65 11 3e db 05 ad 3d
       -0.06854285 -0.15361074 0.1419876 0.084483825
000080 ea 34 84 be a2 65 ec bd 14 81 01 be 8c 39 d6 bd
       -0.2582162 -0.115428224 -0.12646896 -0.10460195
000090 92 cc 26 3e 3c 04 14 3e 45 19 26 be 93 77 eb 3d
       0.16288975 0.1445474 -0.16220577 0.11497416
0000a0 4e 10 0f be ae 2a 42 3e 27 3d 3c be 9f e2 d0 bd
       -0.13971063 0.18961594 -0.18382703 -0.101994745
0000b0 43 6b 92 3d 80 dd 10 be 7b 5c 9a 3d 96 7b d2 3d
       0.07149365 -0.14146996 0.075371705 0.102774784
0000c0 9a 5d 06 3d 31 62 5c 3d 1b 33 6e 3d 83 d4 2a be
       0.03280411 0.05380458 0.058154207 -0.1668263
0000d0 26 6e b1 3d f3 2e 3e be d6 1b 09 be 7e 41 33 3e
       0.08663587 -0.18572597 -0.13389525 0.17505452
0000e0 79 59 91 bd 9e 3d 19 3e 9d 12 a7 bd 48 a2 6c bd
       -0.07097144 0.14964911 -0.08157847 -0.05777195
0000f0 0c dc 19 be 57 81 6f 3d dd 23 f1 3d c0 f6 fd bd
       -0.15025347 0.058472957 0.117744185 -0.124005795
000100 f5 56 2f bc 54 3c d6 3c 25 4f 1e bc 17 26 04 bd
       -0.0107018845 0.026151814 -0.009662424 -0.032262888
000110 1a ab fe bc 6d d4 f7 3d cd 51 9c 3c ec b1 b0 3d
       -0.031087447 0.12101064 0.019081974 0.08627686
000120 f6 8b 28 be 80 fc 52 3e 61 86 44 be ba 00 ab bd
       -0.16459641 0.20604134 -0.19191886 -0.08349748
000130 b4 cc e7 bd f2 13 99 3c 61 f5 ba bd b6 1d 17 be
       -0.11318341 0.018686268 -0.091288336 -0.14757428
000140 f2 c9 5e bd d7 4c 32 be 67 84 08 be eb ed 6d 3e
       -0.05439181 -0.17412125 -0.13331757 0.2323529
000150 77 04 d4 bd ce a8 92 bc 50 b2 2e 3e 78 1c ee 3d
       -0.10352414 -0.017902758 0.17060208 0.11626524
000160 26 98 e5 bd 82 a2 62 3e 95 35 6b 3d 17 f8 1d 3b
       -0.11210661 0.22132304 0.057424147 0.0024104172
000170 f9 5a 1a 3d cc 3b 35 be e1 b7 c9 bc ea 74 83 3d
       0.037684415 -0.17698592 -0.024623813 0.06418784
000180 ca fa 64 3d 0f ef 63 3e 6d 58 c1 bd b1 95 04 be
       0.055903234 0.22259162 -0.09440694 -0.12947728
000190 67 cc 2f 3e bd 10 c9 3d f5 58 f8 bd ff 45 76 3c
       0.17167817 0.09817646 -0.12126342 0.015031337
0001a0 ac 99 09 3e 79 ca c6 3d 42 b2 75 bd b6 21 f9 3d
       0.13437527 0.09706587 -0.059984453 0.12164633
0001b0 1e 04 ff bd dd 3e ac 3d 12 13 91 3d 6a 4e 04 bb
       -0.12451957 0.08410428 0.070837155 -0.002018834
0001c0 5f ab a1 3d 84 c3 fe 3d 4f e5 38 be 35 2a 00 be
       0.078940146 0.124396354 -0.18056224 -0.125161
0001d0 b1 29 d8 3d 3f 26 1f be f0 0e 12 3e 7f 2d 5c 3e
       0.10554827 -0.15541933 0.1426351 0.2150173
0001e0 52 1c 49 3d 64 be 15 be f6 f1 3e be eb 5c 28 be
       0.049099274 -0.1462341 -0.18646988 -0.16441695
0001f0 37 da 9c bc 20 d9 3a be 91 1a aa bd 90 a9 9d 3c
       -0.019147022 -0.18246889 -0.083058484 0.019245893
000200 0c f4 0c 3e 52 78 16 be 82 d2 08 3e 75 ff dc bd
       0.13764971 -0.14694336 0.13361552 -0.10790912
000210 f4 19 11 3e 1d 5c 46 bd 6c 10 88 bd 45 10 9d bd
       0.14170057 -0.04842769 -0.06643757 -0.07669119
000220 38 fc 05 3d 3d bd f5 bd 91 d1 90 bd d6 e8 a6 bd
       0.032711238 -0.11998985 -0.070712216 -0.08149879
000230 e7 44 d8 3d 21 be 85 bd c1 77 14 3e 63 f6 d5 bd
       0.10560017 -0.06530405 0.14498807 -0.10447385
000240 bc 4e 62 3e 76 2b 26 3d eb 30 f2 bc c0 f0 aa 3d
       0.22100347 0.04056879 -0.029564342 0.08346701
000250 ce 46 9f bd 46 88 51 bc 6a 41 6b 3d 41 9f 80 bc
       -0.07777177 -0.012788838 0.05743543 -0.015700938
000260 99 41 02 3e 8b a3 5e be 65 e6 ff bd 1a 2b 63 3e
       0.12720336 -0.21742074 -0.12495116 0.2218441
000270 30 31 5b bd 09 8b 11 be 3f 44 45 3c 61 ad fb bd
       -0.053513706 -0.14213194 0.012040197 -0.12288929
000280 5b 8e 2d bb 41 3e 8b bc 2d 44 37 3c 9d a3 98 bd
       -0.0026482556 -0.016997458 0.011185688 -0.07453082
000290 83 3a 81 3e 5f 57 a7 3d 28 20 9e bd ad f6 8c bd
       0.25239953 0.081709616 -0.07720977 -0.06882987
0002a0 2f 5e 07 3e a9 12 c5 bd b5 b6 e5 bd 7c 47 45 be
       0.13219522 -0.096227 -0.11216489 -0.1926555
0002b0 34 d5 00 3e c4 e5 65 3b 65 ea 08 be 22 a8 56 be
       0.1258133 0.0035079578 -0.13370664 -0.20962575
0002c0 34 8e 04 be a1 25 16 be fd 26 34 3e c7 c3 42 be
       -0.12944871 -0.14662792 0.17592998 -0.19019996
0002d0 fa 09 53 be dd 50 ce bd 06 7a d7 bd 16 2b 39 3e
       -0.20609275 -0.10074017 -0.10521321 0.18082842
0002e0 0b 00 4f 3e 89 d3 d2 bd e0 86 de 3d d0 7e 17 3e
       0.2021486 -0.102942534 0.10865569 0.14794469
0002f0 a1 ae 97 3c 10 8b aa 3d 61 a5 b0 3c a8 9c 55 be
       0.018515887 0.08327305 0.021563234 -0.20860541
000300 ef 0a b2 3c 9a 8a 87 bd f0 ac 31 3e 46 42 9d bc
       0.02173373 -0.06618233 0.17351127 -0.01919664
000310 43 a3 28 3e f7 c8 9e bc ed 35 f3 3d f4 02 49 be
       0.1646853 -0.019382937 0.1187552 -0.19630033
000320 7a ff c5 bd 0a e1 d9 3d ff bd fe 3d 44 94 5f 3e
       -0.09667869 0.10638626 0.12438583 0.21833903
000330 8a f3 c8 3d 66 60 30 3e 80 e5 41 be 8a 73 fa bd
       0.098120764 0.17224273 -0.18935204 -0.122290686
000340 01 d7 8b bc 2c 93 6e bd 1d 1a 8f bc ec 08 d1 bd
       -0.017070295 -0.058245823 -0.017468506 -0.1020678
000350 f2 52 4a 3e f4 a2 d1 3d 82 6f 0a bb 24 f0 30 3e
       0.19758204 0.10236159 -0.0021123593 0.17279106
000360 27 17 29 be ac 15 09 3e 56 ed 00 be 45 52 d5 bd
       -0.16512738 0.13387173 -0.12590536 -0.10416082
000370 4b fd 41 3e 19 85 40 bb e6 ae 24 be 92 f9 46 be
       0.1894428 -0.0029376207 -0.16082343 -0.19431141
000380 8d cc 2c be 70 a1 3c bd d3 cd c3 b8 4c 4a 0e be
       -0.16874905 -0.046052396 -9.336662e-05 -0.1389553
000390 a9 f4 44 be 11 a0 a4 bd bf e5 5b 3e 04 1a 9c 3d
       -0.19233955 -0.08038343 0.2147436 0.076221496
0003a0 05 28 ff 3d 35 27 14 bd cd 5c 3d 3e a9 3b 38 be
       0.12458805 -0.036170203 0.18492432 -0.17991509
0003b0 a6 0b 16 be 5b 09 b3 3d 64 ae 15 3c 1c 5e 12 3d
       -0.14652881 0.08742019 0.009135816 0.03573428
0003c0 b2 70 d7 3d ae b4 4a bd 74 78 36 3e 14 85 05 3e
       0.10519542 -0.049488716 0.17819387 0.13039047
0003d0 8f 4f 2a be 65 e1 19 3e bb 8e 93 3d 1c b9 ca bd
       -0.16631912 0.15027387 0.07204958 -0.09898588
0003e0 29 d4 ca 3d d8 11 98 bd 59 af 45 3c b7 14 2c be
       0.099037476 -0.074252784 0.012065732 -0.16804777
0003f0 25 84 31 3e 4b a5 b8 3d 87 7b 83 3d f9 b8 d5 bd
       0.17335565 0.09015902 0.06420045 -0.10435671

gnn.convs.0.lin_r.bias f4 [67]
000000 da 4e a8 3d 41 ea 48 3c ac 0e ad bb 38 8c 9a 3d
       0.08218165 0.012262882 -0.00528129 0.07546276
000010 f7 91 0f 3d a7 28 18 bd df 3a 2c bd 7e bb 05 3e
       0.035051312 -0.037148144 -0.04204833 0.13059804
000020 33 17 35 3d 2d 6b f9 bd 08 61 22 3e 61 1c 8f bc
       0.044211578 -0.12178645 0.15857327 -0.017469587
000030 f2 b9 ec 3c 9b ea 5a bc 12 a3 3e 3d f1 86 4a 3d
       0.02889726 -0.013361598 0.046542235 0.049445096
000040 57 5a 8d 3d a8 ff 8b 3b 62 e3 d9 bd a5 ff 47 3c
       0.069019966 0.00427242 -0.10639073 0.0122069465
000050 95 54 06 bd 64 aa a0 bd e3 ad 01 3e e5 71 a5 bd
       -0.032795507 -0.078449994 0.12663989 -0.08078364
000060 97 d0 12 3d 8a c5 e2 bd c4 08 95 bd d4 d2 dd 3d
       0.035843458 -0.11072834 -0.072770625 0.10831228
000070 95 5f f4 3d 0a ac d7 bc 4d 0d 91 bc 1e 7d 66 3d
       0.11932293 -0.026327152 -0.017706538 0.056271665
000080 e3 02 34 3d 03 0c 14 bd 0d d0 54 bd 26 81 08 be
       0.043948065 -0.036144268 -0.051956225 -0.13330516
000090 a4 d6 af bc 91 73 e5 3d a1 16 6c 3d ae 65 e5 3d
       -0.021464653 0.11203683 0.057638768 0.112010345
0000a0 89 8a 47 3c f6 0b d4 bd d5 ff ea bd 76 b1 eb 3d
       0.012179025 -0.10353844 -0.11474577 0.11508457
0000b0 38 67 c1 3d 8c ce 75 3d e1 8e b9 bd 3e ab f8 bd
       0.094435155 0.06001143 -0.09060455 -0.12142037
0000c0 74 36 a8 3d 39 d5 c5 bc 94 e0 b5 3c 4b 5b c2 3d
       0.08213511 -0.024149524 0.022201814 0.09490069
0000d0 1e 2a e5 3c 48 90 bf bd ad 7e 14 bd 85 c1 0d be
       0.027974185 -0.09353691 -0.03625362 -0.13843353
0000e0 e1 cc 99 3d cf 58 46 bd 2d 5b a6 bd cc eb 8f 3d
       0.07509781 -0.04842454 -0.08122859 0.070273966
0000f0 59 26 2f bc 3f 0b c1 bc 7c e4 01 3e ab 6e b1 3c
       -0.010690295 -0.023564933 0.12684816 0.021659216
000100 33 18 b3 bd 70 b2 9d bd c2 8f 44 3d
       -0.0874485 -0.0770005 0.04798866

gnn.convs.0.lin_edge.weight f4 [67, 9]
000000 7c e7 79 3d 30 1b b0 bd d1 77 22 3d b9 67 c6 bd
       0.061011776 -0.085989356 0.039665047 -0.09687752
000010 7e d5 28 be 0a 45 9f bc 8f a4 5a be e8 70 cb bd
       -0.16487691 -0.0194421 -0.21351837 -0.099336445
000020 29 90 aa 3d 1e 90 83 3e b1 3a d1 bd 90 38 b4 3c
       0.083282776 0.2569589 -0.102162726 0.021999627
000030 b0 30 84 bc b5 32 0c 3e 9d 4e aa 3d 9e 5a b4 3d
       -0.016136497 0.13691218 0.083157755 0.08806346
000040 cb 41 7d 3e 52 ab e5 bd 75 0e ea bd 9f 34 e0 be
       0.2473213 -0.112143174 -0.11428539 -0.43790147
000050 69 0e 5c be 57 61 fa bc b5 34 da be a2 37 58 3d
       -0.21489872 -0.030563993 -0.42618337 0.05278743
000060 fb 16 ad 3c 3a 68 47 3e a8 fa 56 3e 15 21 59 bd
       0.021129122 0.19473353 0.20994055 -0.053010065
000070 3c 9b 92 bc cb f0 34 be ec 94 00 3e 52 5a 43 3e
       -0.017896287 -0.1766998 0.12556809 0.19077423
000080 b8 f3 22 be 22 cd 0f be e9 a3 ee bd 27 77 de be
       -0.15913284 -0.14043096 -0.11652357 -0.4345028
000090 e9 01 f3 bc 82 f7 65 bc 2c 28 39 be 08 4d c4 bd
       -0.029663997 -0.014036061 -0.1808173 -0.09585005
0000a0 99 ce ee bb 07 d4 0c be 8c 7e a9 bd 9a ee 7f bd
       -0.007287812 -0.13752757 -0.0827609 -0.062483408
0000b0 ee 48 08 be ef a5 9a 3d 5e 5e ad bd ad cb 92 be
       -0.1330907 0.075511806 -0.08465265 -0.28671017
0000c0 9e 45 1f 3e 20 22 01 be 8c 00 ab 3d 43 0d 26 3c
       0.155539 -0.12610674 0.08349714 0.010134998
0000d0 cb e2 38 be 82 2b 5d be a2 fb bd bd 97 b0 d5 bd
       -0.18055265 -0.21598628 -0.09276511 -0.104340725
0000e0 1b a7 85 bd 77 68 1b 3e 9e bc 01 3d be 00 c4 bd
       -0.065260135 0.15176569 0.03167402 -0.09570454
0000f0 08 76 84 be 68 83 0e 3e 7b 69 a0 3e 08 85 43 be
       -0.258713 0.13917315 0.31330475 -0.19093716
000100 48 06 85 be ba 57 1d 3e ed 69 21 3e b0 b9 8d 3d
       -0.25981355 0.15365496 0.15763064 0.06920183
000110 c0 b5 8e 3e 6a 67 a9 3d 6a 09 ae be 1b b0 59 3e
       0.2787304 0.08271678 -0.33991557 0.21258585
000120 48 fb f2 bd 14 5d 72 bd f5 63 34 3d 5b 2f 74 be
       -0.11864334 -0.059170797 0.04404064 -0.2384619
000130 b6 af fe bd 44 dc 72 be ee 2c 01 3e f5 ae 32 3d
       -0.12435858 -0.23716837 0.12614796 0.043623883
000140 37 0d 0b 3e 2a aa 0c bc 00 56 be 3e b4 ee 4d 3d
       0.1357926 -0.008585492 0.37174988 0.050276473
000150 02 bc c4 3d 35 d3 7d 3e eb 5d 2b be 40 cb 03 bd
       0.09606172 0.247876 -0.16735046 -0.032176256
000160 53 cc e3 bd 0b 6f 73 be de 1a 86 3e bc 0e 4e 3e
       -0.11122956 -0.23772828 0.26192373 0.20122808
000170 ba 44 66 3e 5b dc 91 be 97 30 a5 3e 6c ac ba 3d
       0.22487155 -0.2848843 0.32263634 0.09114918
000180 a6 7a 9c 3e 55 ee 82 3d 47 88 ab be 51 c0 54 3d
       0.30562323 0.063931145 -0.3350241 0.05194122
000190 34 03 22 be ef e6 e9 bd 04 c2 77 3e fe 0d 15 3e
       -0.15821534 -0.11421 0.24195105 0.14556119
0001a0 0e 17 60 3e ea 8e 04 be b4 d7 84 3d 39 f1 66 be
       0.21883795 -0.12945142 0.064864546 -0.22552957
0001b0 32 91 17 3e 31 6d 6f bd 60 0f 1c 3e 98 21 78 be
       0.14801481 -0.058453742 0.1524024 -0.24231565
0001c0 0e 59 9f be ed d8 97 3c 23 f6 a7 3d fa bb b1 be
       -0.3112263 0.018536055 0.08201244 -0.34713727
0001d0 92 08 b2 3e bb 4b 1a be 4b 48 89 3d b7 c0 8c bd
       0.34772164 -0.15067951 0.06703242 -0.06872695
0001e0 ac c0 d6 3d 76 71 ce 3d 90 41 46 3e 77 5e c2 bd
       0.10485968 0.10080235 0.19360948 -0.09490674
0001f0 89 40 26 be cb 94 38 be 6a 74 0b be 2f 9d aa be
       -0.16235556 -0.1802551 -0.13618627 -0.33323047
000200 3a 68 50 bd cb 05 ed bd 7c 68 99 3d c6 28 7d 3d
       -0.05088065 -0.115733705 0.07490632 0.061806463
000210 6e f3 01 be bb bf 5d 3e c0 08 a5 3e 06 79 8e be
       -0.12690517 0.2165517 0.32233238 -0.2782671
000220 ab b4 71 be 07 9a 50 3e 23 db 4d bd 9b 9f ea 3c
       -0.23604076 0.20371257 -0.050257813 0.028640559
000230 7c 79 6a 3e df f2 1e 3d 13 d7 2f be 76 93 64 bc
       0.22897905 0.03880584 -0.17171888 -0.013951173
000240 c3 19 9c be 38 e4 8b be de 2a a1 bd 88 10 14 3e
       -0.30488405 -0.27322555 -0.078695044 0.14459431
000250 ae 01 94 be 32 3e 2c 3e be 11 83 be 95 42 83 3d
       -0.28907531 0.168206 -0.25599474 0.06409184
000260 47 6c 01 b9 b5 ea d8 3e 84 77 e7 3e 23 29 7f 3e
       -0.00012342735 0.42366567 0.4520837 0.24918036
000270 67 13 21 be 51 3a 1c 3e 1b 5b 22 bd 71 51 cb 3d
       -0.15730058 0.15256621 -0.039637666 0.09927643
000280 bb e9 14 3e 13 d0 65 be ac 86 81 bc 0b 62 84 3e
       0.14542286 -0.22442655 -0.015811287 0.2585605
000290 28 43 5d 3e 68 7c cf 3b 2d 36 af bc 85 f5 1b 3e
       0.2160765 0.006331969 -0.021388138 0.15230377
0002a0 db 83 2d 3e de c8 78 3e 17 fb 06 bf 37 08 02 3e
       0.1694483 0.24295375 -0.5272688 0.12698446
0002b0 00 e8 43 3e 16 24 01 3d d6 9a 9f 3d 04 4e 3d bd
       0.1913147 0.031528555 0.077932045 -0.04621698
0002c0 94 4f 93 3e c0 4a 3a 3e a6 f5 2c 3d fb 86 fd bd
       0.2877165 0.18192577 0.042226456 -0.12379261
0002d0 f4 5f 5b bd 56 19 a6 bd 32 c4 cb bd 92 1d 36 be
       -0.053558305 -0.08110301 -0.09949531 -0.17784718
0002e0 1a 9b 3b be ba a8 ea 3c c7 0e 90 be 3d 2e 8b be
       -0.18320885 0.028644908 -0.28136274 -0.27183715
0002f0 29 fa 45 3e 93 d1 5e 3e 9f 6c a3 3d 70 79 63 be
       0.1933371 0.21759634 0.07979702 -0.22214293
000300 7e 87 46 be 03 11 68 be cd 8d 6b 3d 9d a2 86 be
       -0.19387624 -0.2266274 0.05750828 -0.2629594
000310 8d 32 b8 3d 1c 23 e1 3e dc 72 98 3e 40 7d 9e 3e
       0.08994017 0.439721 0.2977513 0.30954933
000320 46 fa b1 3e 16 dd 9e bd 04 ba b0 3e c5 b5 3b bd
       0.34761256 -0.077570125 0.3451692 -0.045827646
000330 72 53 f7 bd 3f 89 8b 3e 8c 1c a9 be dc 40 56 be
       -0.12076463 0.27253148 -0.33029592 -0.2092318
000340 38 a6 9d 3e df 79 1a be d0 6f 22 be 92 b8 76 bd
       0.30790877 -0.15085553 -0.15862966 -0.060234614
000350 3e 64 4e 3e e6 71 79 3e 64 99 c5 3d a4 d2 89 be
       0.20155427 0.24359855 0.096483976 -0.2691852
000360 e2 15 cd 3d 20 d2 63 3e ee 85 88 3e 4b 43 0d be
       0.100139394 0.22248125 0.2666468 -0.13795201
000370 54 46 11 3e 2d b7 e6 3d 85 f4 89 3e 1f bc 4f 3c
       0.14186984 0.11265407 0.26944366 0.012679129
000380 7b 94 97 bd b2 a9 30 3e cf 11 69 bd 3e e6 49 be
       -0.07401367 0.17252234 -0.05690175 -0.19716737
000390 86 59 fb 3d a2 74 08 3e 3f f7 ee 3c 17 6f 08 be
       0.122729346 0.13325742 0.02917063 -0.13323627
0003a0 8f 68 1b 3d 93 b2 f2 be f4 40 c8 3d d8 f2 9b bd
       0.03794151 -0.47401866 0.09778014 -0.07614678
0003b0 c9 14 24 3d 5a ad a5 3d fa 5e a1 be f9 ff 91 3c
       0.040058885 0.08089705 -0.31517774 0.017822253
0003c0 56 88 8c 3d fb 5a 73 bc 91 d8 b0 3b f2 24 c3 bd
       0.068619415 -0.014853234 0.0053969105 -0.09528531
0003d0 07 aa ab 3e 6d 8f 13 be 83 00 99 3d 94 8f 64 3e
       0.33528158 -0.14410181 0.07470801 0.22320396
0003e0 eb 5d 32 3e 68 8b 15 3c a7 d6 ac 3a 5a 4f 12 be
       0.1741864 0.009127475 0.001318653 -0.14288083
0003f0 c0 e6 d8 bd e8 0a 92 3d f5 10 58 3e 30 29 f5 bd
       -0.10590887 0.071309865 0.21100219 -0.119707465

gnn.convs.1.att f4 [1, 1, 67]
000000 98 0c 88 be 84 0b fb be 9e af 7b be 1d 20 99 be
       -0.26572108 -0.49032223 -0.24578711 -0.29907313
000010 e4 19 62 be 2d f2 cc 3e 02 5e 13 bf e7 11 45 bd
       -0.22080189 0.40028515 -0.5756532 -0.048112776
000020 8c 22 9a be 5b 74 c6 be 0b 47 c7 bd d0 9e 23 be
       -0.30104482 -0.38760647 -0.09730347 -0.15978551
000030 66 80 7f be e3 b8 94 be ff 41 81 be 31 84 cb be
       -0.24951324 -0.29047307 -0.25245664 -0.39749292
000040 3d 87 11 3e 4b d6 7e 3e 0c 3a c1 be fe 68 05 3f
       0.14211746 0.24886434 -0.377396 0.5211333
000050 b0 84 82 be be 41 83 3e 34 34 d7 3e 3d a9 ec 3d
       -0.25491858 0.25636095 0.42032015 0.11555717
000060 07 90 ad be ec cb 3b 3e 70 c3 6d be 00 b2 d2 be
       -0.33898947 0.18339509 -0.23219085 -0.41151428
000070 10 a7 3b 3e 36 9f 66 be 83 c5 0c 3f f2 32 f9 3d
       0.18325448 -0.22521672 0.5498888 0.1216792
000080 ce 56 17 be f1 25 c0 be b2 b4 8c 3e 13 ae e5 be
       -0.14779207 -0.37528947 0.2748161 -0.4485937
000090 82 ad 3f be 45 bc 89 be ad 96 b9 bd 14 8f 80 3e
       -0.18718532 -0.2690145 -0.09061942 0.2510916
0000a0 17 b0 e9 be 82 cf 6b 3e c9 5d cd 3d 72 a8 ec 3d
       -0.45642158 0.23028377 0.10027654 0.11555566
0000b0 7c dc 5b 3d 37 07 35 be ae 0d 8f 3d 88 8d 13 3e
       0.053677067 -0.17678533 0.06985031 0.14409459
0000c0 c5 3f 9f be be 95 af be a6 b4 58 be e2 f0 87 3e
       -0.3110334 -0.34293932 -0.21162662 0.26550967
0000d0 d3 70 d0 be 66 f6 e1 be cd d1 a5 3d 2a 65 41 3e
       -0.40711078 -0.441333 0.08096657 0.18886247
0000e0 c2 06 aa be 49 49 91 be 27 a3 c9 bd 7e 82 85 3e
       -0.3320828 -0.28376225 -0.09845572 0.2607612
0000f0 b0 c8 8b be bc 00 56 be 67 7d 18 3d ec 19 db be
       -0.2730155 -0.20898718 0.037228968 -0.42793214
000100 ec c1 06 3e 4e 8d 17 3e 5c ab d5 be
       0.13159913 0.14799997 -0.417323

gnn.convs.1.bias f4 [67]
000000 d6 3e ef bc cc 77 9a 3b e3 48 07 bd 90 00 aa bc
       -0.029204767 0.004713988 -0.033028495 -0.020752221
000010 68 a8 8e 3c 91 53 f6 3b 99 24 11 b8 6b 5c 49 bb
       0.017414287 0.007517286 -3.460478e-05 -0.0030725251
000020 28 f5 a7 3b 53 a4 ee bc b7 52 d5 bb b5 1b 59 bc
       0.0051256604 -0.02913109 -0.0065101045 -0.013251235
000030 b8 cd de 3b f9 df f0 3c b6 84 07 bd f5 5d 9f 3c
       0.006799426 0.029403673 -0.033085547 0.019453982
000040 34 78 f0 bb 62 d1 51 ba 6f 4d 06 bc 18 67 f3 bc
       -0.007338548 -0.0008003918 -0.008197173 -0.029712245
000050 6a 1d 9d 3c b4 f3 4f bc f4 80 e5 bb d8 94 ae bc
       0.019179065 -0.012692381 -0.007003898 -0.021311209
000060 33 ce d4 bb fd dd c7 3b 71 1e 37 bc b5 e3 a9 bb
       -0.0064943074 0.006099461 -0.011176691 -0.0051846155
000070 c6 a8 47 bb b8 b3 4e bc c3 1b 83 3c 17 bb 2d bb
       -0.0030465587 -0.0126160905 0.016004449 -0.002650922
000080 f9 22 82 3b 80 f0 19 bc 78 2e 09 bb 8b c2 04 3d
       0.003971454 -0.009395719 -0.0020932239 0.032412093
000090 15 92 0f bc 54 a4 29 3b 27 cc 88 bc 99 73 b5 3b
       -0.008762856 0.00258853 -0.01669891 0.005537462
0000a0 4b 30 78 bc 16 55 67 39 fb 08 80 bc a3 67 9d b9
       -0.015148233 0.00022061574 -0.015629282 -0.0003002259
0000b0 e5 ff 51 3c 0a 3c d3 bc 0c ac 7a 3c 6d 56 ca ba
       0.012817358 -0.025785465 0.015299808 -0.0015437134
0000c0 db 9a 0d 3c 1e 4e 0b 3c 19 25 ba bc 93 60 26 3c
       0.008642877 0.008502511 -0.022722768 0.010154861
0000d0 b2 2a f3 39 35 ca 39 bd 96 60 ef 3b 3b 10 24 3c
       0.00046380382 -0.045358855 0.007305215 0.010013635
0000e0 c3 b6 af bc 2c 64 97 3c 20 6e 3c 3c 0d dc c5 bb
       -0.021449452 0.018480383 0.011500865 -0.006038195
0000f0 87 c3 13 bc ec c2 ef bb 4b fd 2b bc ed d3 a5 3c
       -0.009018785 -0.0073169377 -0.0104974015 0.020242656
000100 9b 2a f0 bb cc 1b fd 3b 5e 6b c8 bd
       -0.0073292977 0.007724261 -0.09786104
