Flower_classification_android_app/app/src/main/ml/iris.tflite (tflite, 20360 bytes, 5 tensors)

sequential/dense/BiasAdd/ReadVariableOp f4 [64]
00000000: 687d 0bbb 0000 0000 8e45 e43d 0000 0000
00000010: 0000 0000 de2b 69bd 0000 0000 81a4 2abd
00000020: 0000 0000 0000 0000 eeff 443d 0000 0000
00000030: 09e6 833a 30ed 1dbd 71b4 4abc c374 cebc
00000040: 4e48 49bc 780e 5ab9 a757 9c3c 333c cdbc
00000050: e72f aa3c 0000 0000 c8f9 aa3c 3458 2cbc
00000060: 6048 41bd f38f 3ebd 0000 0000 6639 e2bd
00000070: 0000 0000 97a4 96bc 809b cdbb 5b17 b1bc
00000080: 0000 0000 4020 1abc 7ad8 623d ae76 30bd
00000090: 0000 0000 0000 0000 0000 0000 0000 0000
000000a0: b2c8 c9bc 0000 0000 0000 0000 0000 0000
000000b0: 2d5f 0d3e 0000 0000 9cfe a23d 53ce 273d
000000c0: bfbf 43bc 8c50 d23b 0000 0000 57f5 783c
000000d0: a60a 8abb dacc 73bb 0000 0000 aed0 ccbc
000000e0: 0000 0000 0000 0000 0000 0000 0000 0000
000000f0: 0000 0000 9af9 f6bc 63c8 afbc 0000 0000
-0.0021284465 0.0 0.11146079 0.0 0.0 -0.0569266 0.0 -0.04166079
0.0 0.0 0.048095636 0.0 0.0010063063 -0.038556278 -0.012372122 -0.02520216
-0.012285305 -0.0002079549 0.019084765 -0.02505312 0.020774795 0.0 0.020871058 -0.010519076
-0.047188163 -0.046524 0.0 -0.11046104 0.0 -0.01838903 -0.0062746406 -0.021617582
0.0 -0.009407103 0.05538223 -0.04308193 0.0 0.0 0.0 0.0
-0.024631832 0.0 0.0 0.0 0.13805838 0.0 0.07958719 0.04096825
-0.011947571 0.0064182933 0.0 0.015195212 -0.004212695 -0.0037200958 0.0 -0.02500185
0.0 0.0 0.0 0.0 0.0 -0.030148316 -0.021457857 0.0

sequential/dense/MatMul f4 [64, 4]
00000000: f169 4dbd 8565 c5bc 6fdf a6bc 04b7 513e
00000010: 90b4 a3bd 4884 ecbd fa0c ddbd 7418 5dbd
00000020: cca3 ae3e 0b12 7e3e fc21 71be 78b8 b0bd
00000030: 5b32 8cbe 0fcc 11be ac59 d2bd 60e2 ac3d
00000040: 9120 0dbe df6a 40be e78a 7dbe 482d 3a3d
00000050: 4b95 2f3d 9041 84be 3241 8e3e 8bd0 d53e
00000060: 84c4 67be 8035 42bc 9498 553e ba95 38be
00000070: e369 c8bc 6807 b0b9 21ee 9d3e cc1d 813e
00000080: bc91 58be 8bad 0fbe a77e 04be fa45 37be
00000090: cb02 2bbe 0eb6 273e 0ddb 04be 7036 43bd
000000a0: b225 8d3e a143 ba3e 0ee3 95be a640 4cbe
000000b0: d030 eb3c c237 91be e07b 6ebd e454 89be
000000c0: b741 bd3c 994f 853d 9c31 e43d bc0d e93d
000000d0: 74ef 3f3e 771a 5ebe 9d70 833e 0a98 913e
000000e0: 22cc e03c ab94 333d 7887 a0be 1ad8 553e
000000f0: 1115 2dbc 4968 173e ec87 903d 1535 28be
00000100: 7b7f eb3d 58e3 a0be 1b03 bb3e a2de 1a3d
00000110: 98f4 1fbe 4147 8d3e 62fe 1fbe 8b02 32bd
00000120: c8b3 fe3d f806 82be a31b 7f3e 20f2 56be
00000130: 0029 37be 145c 57bd 3e0b 973e acc0 043d
00000140: 327d 1d3e 068d 553e ac5a a2be b08a 17be
00000150: 5e28 a6bd b075 51bd 50d0 95bd 42f2 f8bd
00000160: 7af6 e4bb fe00 823e 7d28 42bd e31b 983d
00000170: e750 673e 60b2 90be a59d 9bbe dea3 043e
00000180: b44b 26be f765 0a3e 7c5d 243e 11fb 8e3e
00000190: c404 173e 3171 00be 8245 b83e 5f99 813e
000001a0: a034 3ebd 3ce9 53be 59fe 76be 808d 64be
000001b0: d715 1fbe 9a23 0bbd 86e5 043f d8cd 9d3e
000001c0: e435 0f3e 2680 15be 7eda 63be b494 77bd
000001d0: e548 aa3d d930 cfbd c933 a93e 5dc4 723e
000001e0: 5693 c2bd a8da 4e3e f45d 0d3d b5d4 25be
000001f0: f95e 953a 7ba7 31be 05cf b53e d1c1 813e
00000200: 5dbd 63be 2887 353d f7be 52be 50e3 e53c
00000210: 65e0 763c e785 1ebe 8626 cf3e 03df 51be
00000220: c327 603e 4f5b da3e 0eb1 e7be 9122 8b3c
00000230: 6a64 15be 941a 6a3e ddf5 293e cf71 453d
00000240: 3ea9 0ebe 162f 67be dcc0 3cbe 5079 703e
00000250: 1132 7ebe d071 3b3e 146f 73bd 248d ff3d
00000260: d88c b7bd ba57 21be 04e6 b63d 8a4f 92be
00000270: 400a c2bc 00dc c8bc ce10 47be 6f86 71be
00000280: 6e48 e2bc db00 95bd 80e2 8a3e 96bb cd3c
00000290: 8ac5 97be dc5f 6bbe 08fe 563e e099 003d
000002a0: 8d2d 8bbe 02da f3bd ce61 d2bd e6d1 23be
000002b0: dc6a 3ebe e4ce 19be fc8b 72bd e41b 3b3e
000002c0: 3acb ff3e f391 003f ef6e fbbe 8db6 09bf
000002d0: f01a 1fbd c8f8 0cbe a0d2 5fbc dc49 ab3d
000002e0: 43c3 d83e 36a9 aa3e b6ba 0f3e 5eff c9be
000002f0: 5845 3e3e 5384 f83d 626a 2b3e b41e a03b
00000300: 5899 26be e6e7 a73d 9cd3 9f3e bacd 983e
00000310: de4a c7bd be58 873e bfba 5a3e 06c8 d2bd
00000320: 9c69 83be 8069 1abb 50b2 c9bc 32fc 2d3e
00000330: f4dc d0bc aeef ad3e c6c3 56be 5619 f13d
00000340: 7fd0 8a3e 19d2 92be d23e b63d e6cc 9abd
00000350: ed61 503e fa24 4c3d 293e 8bbe 699e 5bbe
00000360: 300e 503d 8bd1 1abe a82d 3cbe ade3 6abe
00000370: f457 3e3d ccfa c33d 4f70 053e 1264 9fbd
00000380: aec3 77be 3af0 803e 38b6 6c3d 222d 58be
00000390: 18c7 48be f072 283e a4e9 e9bd 15ab 76be
000003a0: d4ce 9c3d e579 59be 5ed2 66be 0cfc 57be
000003b0: 6ee7 9bbd 4007 0bbd a85b 503d d86e dfbd
000003c0: ad7e 87be 64ac b93d 3e43 343e 8a39 51be
000003d0: 11aa 7abe 9545 143e 225f e13e 14cd c53e
000003e0: 0e53 b03c a7d2 8f3d cb91 593d 0e2f 313e
000003f0: d088 87bd ea28 9ebd c885 123d 4dbf 5cbe
-0.05014986 -0.02409626 -0.020370213 0.20479971 -0.07993424 -0.11548668 -0.10793491 -0.0539784
0.34109342 0.2481157 -0.2354812 -0.086289346 -0.27382168 -0.14237998 -0.1027101 0.08441615
-0.13781954 -0.18790768 -0.24760018 0.04545334 0.042866986 -0.2583127 0.27784115 0.41760668
-0.22633559 -0.011853576 0.20858985 -0.18025866 -0.024464553 -0.00033574854 0.3084574 0.25218046
-0.21149343 -0.14031045 -0.12938939 -0.17897788 -0.16700284 0.16378042 -0.12974186 -0.047659338
0.27567822 0.36379722 -0.2927479 -0.19946536 0.028709799 -0.28362852 -0.058223605 -0.2682258
0.023102624 0.06509323 0.11142275 0.11379573 0.18743688 -0.21689783 0.25671855 0.2843631
0.027441088 0.043842953 -0.31353354 0.20883217 -0.010564105 0.14785875 0.07057175 -0.16426499
0.11498924 -0.3142345 0.36525807 0.037809975 -0.15620649 0.27593425 -0.15624383 -0.043459456
0.12436634 -0.25395942 0.24912886 -0.20990801 -0.17886734 -0.052578047 0.29500765 0.03241031
0.1537979 0.20854577 -0.31709802 -0.14798999 -0.08113168 -0.051137626 -0.07315123 -0.12155582
-0.00698739 0.25391382 -0.047401894 0.07427194 0.22589456 -0.2826109 -0.3039371 0.12953135
-0.16239816 0.13515459 0.16051286 0.27925923 0.14747912 -0.12543179 0.3599053 0.25312325
-0.046436906 -0.2069444 -0.24120463 -0.22319603 -0.15535675 -0.0339695 0.51912725 0.3082111
0.13985401 -0.14599666 -0.22251317 -0.06044455 0.08314685 -0.10116739 0.3304732 0.23707719
-0.09500758 0.20200598 0.03451343 -0.16194423 0.0011396102 -0.17349045 0.35509506 0.25343183
-0.22240205 0.04431835 -0.2058066 0.028062493 0.015068148 -0.15480767 0.4045908 -0.20495228
0.21890168 0.42647788 -0.4525227 0.016984256 -0.14589086 0.22861701 0.16597696 0.04820424
-0.13931748 -0.22576556 -0.18432945 0.23483777 -0.24823786 0.18305135 -0.059432104 0.12478092
-0.08962411 -0.15756121 0.08930591 -0.28576308 -0.023686528 -0.024518967 -0.19440004 -0.23586439
-0.027622428 -0.07275554 0.2712593 0.025113862 -0.29642898 -0.22985786 0.20995343 0.031396747
-0.2718319 -0.11906816 -0.10272561 -0.15998039 -0.18595451 -0.15020329 -0.05921553 0.18272358
0.49959737 0.502227 -0.49108073 -0.53794175 -0.03884405 -0.13766778 -0.013661057 0.08363697
0.42336473 0.33332223 0.14036068 -0.39452642 0.1858114 0.12134614 0.167398 0.0048864726
-0.16269433 0.08198528 0.31216133 0.29844457 -0.09731077 0.26434892 0.213603 -0.10292058
-0.2566651 -0.0023561418 -0.024621159 0.16990736 -0.025495984 0.33971924 -0.20973119 0.117724106
0.27112195 -0.28675917 0.08898701 -0.075586125 0.20349856 0.04983995 -0.27195862 -0.21447147
0.05079478 -0.15118997 -0.18376791 -0.22938414 0.046470597 0.0956932 0.13031124 -0.07782759
-0.2419574 0.25183278 0.057790965 -0.21110967 -0.19607198 0.16450095 -0.114215165 -0.240887
0.07656637 -0.21237905 -0.22541186 -0.21092242 -0.07612501 -0.03394246 0.05086866 -0.10909814
-0.26463833 0.09066084 0.17603776 -0.20432106 -0.24478938 0.14479668 0.44017893 0.38633025
0.021523979 0.070226006 0.053117555 0.17303106 -0.06617892 -0.077226475 0.035772115 -0.2155735

sequential/dense_1/MatMul f4 [64, 64]
00000000: 4d45 08be f034 123c 5b35 e63d 942e 36be
00000010: 6ea1 1dbe 7bb9 3bbd 71f4 0d3e a9d5 29bd
00000020: f293 a03d 3167 113e e4fa f73d c49c c8bd
00000030: dc9b 11be 218e 44be 2043 d2bd 34c8 28bd
00000040: ef63 4fbe 6d9b 9cbd 061c 773d 6620 e0bc
00000050: 26c2 d43d 66aa d03d aeeb 2cbe 9888 78bc
00000060: 4144 143e dbaf 3f3c 6ce5 d3bd 5d00 cfbd
00000070: b5b2 03be 4e08 043e 7aef 04bd e7cb 5ebe
00000080: 6cc4 643d 6aee 353d 1ba6 133e aef3 17be
00000090: 2299 b5bd e43b 8cbd 04df 4e3d 0af6 1abe
000000a0: b734 b3bd cc1f fbbd f482 56be 7e0d 913d
000000b0: af67 013e d13e 113e ae6c ef3d 1feb 41be
000000c0: 902a 50be a2f7 f3bd 7fa5 12be afdb 323e
000000d0: a53e 263d cc6d b6bd 1568 37be 28a7 51be
000000e0: 5af3 3fbe 7497 fabd 25c9 2b3e ea03 36be
000000f0: 1f4c 433e 5d71 0e3e dce6 f53d 7513 5a3e
00000100: 0174 263d 1a09 c33d 1326 33be 42e2 e33d
00000110: b2a0 06be 326f c6bc 5052 69bd 0b37 4b3d
00000120: 19bf 1cbe 9200 b73d c3b1 8abd f4e3 06bd
00000130: c1f7 2e3e f6e7 17be 6069 2e3e 320d ea3d
00000140: 84de 3b3e d59a adbd f74d adbd 5cdd 7d3d
00000150: 7681 bbbc f386 35be da14 eebd e541 08be
00000160: 1f89 ab3c 33ad 3f3e ac4d 2abd 63fc 383e
00000170: 6484 05bd cfe8 2f3e 657c 1e3e c063 fc3c
00000180: e820 f8bd 222f 083e 16c2 83be 7c3c 34be
00000190: d098 0abc 1b54 5b3e 4621 8e3d ccce 69bd
000001a0: c013 08be 7ce8 373d 4ece 3dbe 3866 813c
000001b0: ad81 003e 7c06 433d b6bc 383e 7d44 42be
000001c0: 5495 153d d290 86bd f07f dabc f5ef a1bd
000001d0: 5e11 28bc 5639 933d 4d91 093e 7091 cabd
000001e0: 00e0 0a3a b27e 11be 5ab1 d93d f763 513e
000001f0: 042c 053d a234 353e 6802 efbd 30f7 063c
00000200: 174f 473e 14e3 063d ff04 cfbd 734b 59be
00000210: 700b 53bc 2758 4f3e b0e1 f13c 2066 99bd
00000220: 074f 50be f7c0 153e ad11 26be 95fb f4bd
00000230: 1e1e afbc b2c4 1d3e 97f4 003e 8824 173e
00000240: 73f6 5abd cfe7 fbbd cc48 55be 0606 ee3d
00000250: 33ec 0fbd b951 efbd 7ded ecbd b935 463e
00000260: e16d cc3d b022 c73d c9ae 4c3e 5991 bc3d
00000270: 12e4 8c3d 5217 843d ac36 673d e0bb 48be
00000280: d2d4 ba3d 904b d9bd 94ff 39be 1259 183e
00000290: 94fa 20bd 0e80 d43d 5e03 913d 4c74 1bbd
000002a0: 2eb0 f9bd aabf 933d 00b4 63bd b048 64bd
000002b0: eb01 52bc e292 ea3d 346d 1d3d 5158 0cbe
000002c0: 6ef4 48bd 1c78 383e 3790 013e 5bfc 13bc
000002d0: f74a 06be 3b77 f53d aa3f 1bbe e62f f63d
000002e0: 5039 2dbd e276 993d 60a3 2ebd c3a0 2e3e
000002f0: 35b6 553e 9448 613b 8549 2f3e 5630 fb3d
00000300: c9f4 95bd 504d 1abd 1d6f 5e3d 0020 643c
00000310: 406a 8fbd 2ecb 5d3e aaec 90bd dbfd 80bd
00000320: c094 353c c084 01bd 8f81 293e 0d17 d8bd
00000330: 99e5 133d 9006 b83d 0cb3 fa3d c6bc 183e
00000340: 5968 083e 5b52 11be 51c2 2abe 01fc 563e
00000350: 85b9 c6bd 5f6d 18be b61a 7a3d 5703 aa3d
00000360: df47 c7bd 868e df3d 90ee 89bc e673 463e
00000370: 34d6 26bd 30a8 133e 1e6d aebd 147e 733e
00000380: 827d bb3d 4c3f 42be 4635 2c3d 5224 4f3e
00000390: c29a b23d 5d8a 043e 5647 babd 2dcd 183e
000003a0: 9cdb 023e 4a12 93bd f756 133e 0294 a33d
000003b0: d838 b5bb e67f 16be aa43 dc3c a348 1dbc
000003c0: 2e81 f9bd 9b02 2fbe f61f a73d acb5 b6bd
000003d0: 94cf d0bd db7d e53c 5295 84bd 1eea cebd
000003e0: b0c4 2cbe 5e72 d73d 1bc3 3ebe 60f2 ed3c
000003f0: c613 21be 6df8 24be 91c5 37be a197 343e
-0.13307686 0.008923754 0.112406455 -0.17791206 -0.15393612 -0.045831185 0.13862778 -0.041463528
0.07840718 0.1419952 0.121084005 -0.09795526 -0.14219612 -0.19194843 -0.10266709 -0.041206554
-0.20252965 -0.076468326 0.06032946 -0.027359199 0.103885934 0.10188751 -0.1688678 -0.015169285
0.14479162 0.011699642 -0.10346493 -0.10107491 -0.1286114 0.12893793 -0.032454945 -0.2175747
0.055851385 0.044416822 0.14418833 -0.1483905 -0.088670984 -0.06847361 0.050505653 -0.15132919
-0.08750289 -0.12261924 -0.20948392 0.070826516 0.12637208 0.14184119 0.11690651 -0.18937348
-0.20328736 -0.119124666 -0.14320944 0.17466615 0.040587086 -0.08907661 -0.17910798 -0.20473921
-0.18745175 -0.12235919 0.1677595 -0.1777493 0.19072007 0.13910432 0.120069236 0.21296485
0.040637974 0.0952322 -0.17494993 0.1112714 -0.13147238 -0.024222944 -0.056963265 0.04961304
-0.15307273 0.08935656 -0.067721866 -0.032932237 0.17086698 -0.1483458 0.17032385 0.11428298
0.18346602 -0.084767975 -0.08462136 0.061978683 -0.02288888 -0.1772726 -0.11625071 -0.13306387
0.020939408 0.18718414 -0.04157798 0.18065028 -0.03259696 0.17178653 0.1547714 0.030809283
-0.12115651 0.1329923 -0.25734013 -0.17601198 -0.008459285 0.21418802 0.0693994 -0.057081982
-0.13288784 0.04489945 -0.1853573 0.015795812 0.12549467 0.047613606 0.18040738 -0.18971439
0.036519364 -0.06570591 -0.026672333 -0.07907096 -0.010258047 0.0718867 0.13434334 -0.09891021
0.0005297661 -0.14208487 0.1062953 0.2044829 0.03251268 0.17695859 -0.11670381 0.008237645
0.19463764 0.032931402 -0.10108375 -0.21220188 -0.012881145 0.20248471 0.029526561 -0.07490182
-0.20342647 0.14624391 -0.1621768 -0.11962048 -0.021376666 0.15407065 0.12593304 0.1476003
-0.05345769 -0.12300073 -0.20828551 0.11622243 -0.035137367 -0.11685509 -0.11568735 0.19356431
0.09981895 0.09723413 0.1998855 0.0920741 0.068794385 0.064497605 0.056448624 -0.19602919
0.091226235 -0.106101155 -0.18163902 0.14877728 -0.03930147 0.10375987 0.0708072 -0.037952706
-0.12191807 0.072142914 -0.055591583 -0.055733383 -0.01281784 0.11453797 0.038434222 -0.13705565
-0.04906123 0.18014568 0.1265267 -0.009032334 -0.13114534 0.11985632 -0.15161005 0.12020855
-0.042290986 0.07493378 -0.042636275 0.17053513 0.20870288 0.0034375535 0.17117889 0.12265079
-0.0732208 -0.037671387 0.054305185 0.013923645 -0.070026875 0.21659538 -0.0707639 -0.06298419
0.011082828 -0.03162074 0.16553329 -0.105512716 0.036107633 0.08985627 0.12241182 0.14915761
0.13321055 -0.14191572 -0.16675688 0.2099457 -0.09703354 -0.14885472 0.06106063 0.08301418
-0.09730505 0.10915856 -0.016837388 0.19380149 -0.040731624 0.14419627 -0.08516906 0.23778564
0.09154798 -0.18969458 0.042042993 0.20228699 0.08720924 0.12943406 -0.090956375 0.14922018
0.12779087 -0.07181223 0.14388643 0.079872146 -0.005530458 -0.14697227 0.026887733 -0.0095998375
-0.12182842 -0.17090838 0.08160393 -0.0892137 -0.101958424 0.028014114 -0.06473793 -0.10103248
-0.16871905 0.10519861 -0.18629114 0.029046237 -0.15730199 -0.16110392 -0.1794646 0.17635967

sequential/dense_2/MatMul f4 [3, 64]
00000000: db68 9b3e ba60 acbe 2aae 2f3e 6f60 97be
00000010: 8e47 5f3e 0728 e93c 0cd5 5a3d 24a4 9f3e
00000020: 87c3 a03e d44a b9be b320 b13d 32cb a7be
00000030: ffa3 de3d e4ef 5b3e 8251 eebb 1254 32be
00000040: 30a6 8b3e 090c e43d b213 01be 3511 5dbd
00000050: a74e bdbe 892a 923e b2a4 713e 025b 9ebd
00000060: fc87 0cbe 69fd 6c3e 5a37 b23e 8bc3 6dbe
00000070: eaaf b7be fbe0 73be fe5a 1fbe 1a45 aebd
00000080: 017a fd3d 15fe 2f3d a05b 593e fef3 0abd
00000090: ef47 e2bd baa5 663d df3c 74be 1d30 983b
000000a0: f27f 973e b2da dc3d 748f 78be 4c91 1d3e
000000b0: b716 06bd 5bce ca3e 6262 4d3c db1d 55be
000000c0: aacf f5bc 4eee 863c a7d0 3cbe 2e4a 593d
000000d0: de14 093e a05b 5fbd b1d0 6d3d 3e59 12be
000000e0: faf3 d3be b682 a1bd e69f 873e 99eb 5ebe
000000f0: d9b6 123e 27a1 093d 9075 7ebe 8292 babd
00000100: a083 5d3e eaaa 853e dd6b 5dbe 92b3 0ebd
00000110: 8e37 56be d2fe a8bd 4687 48be 945e 7abe
00000120: 6614 3abe f6d8 ac3d 8c71 21be fd59 3a3e
00000130: cd50 f1bd 0764 d33d fa44 943e 3fdb 9abe
00000140: f32f 383e 5825 7b3d 9eca 293e 6dd6 32be
00000150: 412e 863e 7ebf bcbd 2b32 af3e 0a3e 933d
00000160: 1683 483d 674e b63d 9377 70bc 7a9f b4be
00000170: f8d0 9dbe 7565 b3bd a005 2cbe b142 1dbe
00000180: 868d 63be 2a19 393c 34f4 723e 25b5 5fbe
00000190: 5031 1d3e 93cd 1dbd 31ad 9bbe b21e 32be
000001a0: 25ad 3fbe 5e7f 553e 769e 6c3e 32fa 3f3b
000001b0: f104 5f3d 0c93 4ebd 03a4 85be d9ac 133e
000001c0: e966 0f3e b668 403e 1db0 6cbd d272 13be
000001d0: 5c92 87be 482e 38be b035 93be 9ce4 54bd
000001e0: 8ba2 aa3d ceb3 a23d 32e9 37bd a148 08be
000001f0: 908d 14bd 015d 53be dc89 42bd ef9a 9a3e
00000200: d0df fb3d a4e4 0a3e 7504 053e 57c4 26bd
00000210: 4f3d 243e ae1e f2be 4196 89be a104 643e
00000220: 842b c3be 1c05 503e 121c 79be 2e1f a23e
00000230: 1b7c 86be 6671 b63d 2bb8 323d 5f59 b93e
00000240: 8818 083e c119 d8be fb6a fe3e 9628 f3be
00000250: dad4 06be 7d0a 393e b87c 9cbe 81a4 813e
00000260: 6170 bb3e c3f1 743e 60a4 d2be 8575 bd3e
00000270: 8f10 b43e 0c03 963e 7bcc 98bd 59ca c8bd
00000280: b0df 013e 7778 81bc 84c1 e33d c28c 2a3e
00000290: e960 9c3e 32d6 5a3d a30a 123e 1535 22bd
000002a0: d709 613e 6a65 d43d 6364 6a3e 94d7 113e
000002b0: 1ed8 6cbd 0ca7 94be 5818 0e3e 2479 383e
000002c0: 7920 833d 30bc 333d 047b 413e e93e ffbc
000002d0: f904 4a3e 0133 1f3d 0bb3 9a3e 7854 a8be
000002e0: 5c34 0c3f 28ac 68be 2a26 c2be d092 0a3e
000002f0: be68 0dbe ae02 123d 038d afbd 662e cbbd
0.30353436 -0.33667547 0.17156282 -0.2956576 0.2180464 0.02846147 0.053425834 0.31179917
0.31399176 -0.36189902 0.08648815 -0.32772213 0.108711235 0.2147823 -0.0072729 -0.17414883
0.27275229 0.11135108 -0.1260517 -0.053971488 -0.3697407 0.28548077 0.23597983 -0.07732202
-0.13723749 0.23143543 0.34807855 -0.23219125 -0.358764 -0.23816292 -0.15562055 -0.08509274
0.12376786 0.04296692 0.21226358 -0.033924095 -0.110488765 0.056310393 -0.23851345 0.0046444074
0.29589802 0.107839 -0.24273473 0.15387458 -0.032736506 0.39610562 0.012535663 -0.2081217
-0.030006249 0.016471054 -0.1843897 0.05304926 0.13386866 -0.05453074 0.05806035 -0.14291856
-0.41397077 -0.07886259 0.2648918 -0.21769561 0.14327563 0.033600952 -0.24849534 -0.091099754
0.21632242 0.2610696 -0.21623178 -0.03483922 -0.2091963 -0.08251728 -0.19582853 -0.24450141
-0.18171844 0.084398195 -0.15765971 0.1819839 -0.1178299 0.10321813 0.28958875 -0.30245396
0.17987041 0.06131491 0.16581199 -0.1746461 0.26207164 -0.09216212 0.34217963 0.071895674
0.04895314 0.08901673 -0.014676946 -0.3527792 -0.30823493 -0.08759586 -0.16799021 -0.15357472
-0.22221956 0.0112975035 0.23725969 -0.21846445 0.15350842 -0.03852613 -0.30405572 -0.17394522
-0.18718393 0.20849368 0.23107323 0.0029293415 0.054448072 -0.050433204 -0.26101694 0.14421405
0.14004101 0.18789944 -0.057785142 -0.14399269 -0.2647885 -0.17986405 -0.28751898 -0.05197583
0.08331784 0.07944451 -0.044900127 -0.13308956 -0.036267817 -0.20640947 -0.047494754 0.3019633
0.12298548 0.13563782 0.12989981 -0.040714588 0.16039012 -0.47289032 -0.26872447 0.22267391
-0.38119137 0.20314449 -0.24327114 0.31664413 -0.2626656 0.08908348 0.043632668 0.36200997
0.13290608 -0.4220715 0.49690995 -0.47491902 -0.13167134 0.18070407 -0.30563903 0.2532082
0.36609176 0.2392035 -0.41141033 0.37003723 0.35168883 0.292992 -0.074608766 -0.0980422
0.12682986 -0.015804512 0.111208946 0.16655257 0.30542687 0.05342693 0.1426187 -0.039601404
0.2197641 0.10370906 0.22889857 0.14242393 -0.057823293 -0.29033697 0.13876474 0.18014961
0.06402678 0.04388064 0.18894583 -0.031157928 0.1972846 0.038867 0.30214724 -0.32876945
0.54767394 -0.22721922 -0.37919742 0.13532567 -0.13809487 0.035647087 -0.08571818 -0.09920959

sequential/dense_2/MatMul;sequential/dense_2/BiasAdd f4 [3]
00000000: 3b57 613e 446c 813e e3ab 0fbf
0.22005932 0.25277913 -0.56121653
